weight/model.tflite (tflite, 141044 bytes, 8 tensors)

arith.constant3 f4 [3, 32]
0.22299017 0.33280703 0.4443723 -0.01168695 0.020779131 0.39347893 0.08616005 0.41706318
0.36225322 0.2526366 0.07482349 -0.39212447 0.37545097 -0.36441952 0.35480693 0.39632627
-0.21566962 0.3533854 0.35473427 -0.36053205 -0.23926024 0.36607352 -0.14084831 0.35199896
0.11651851 -0.39331317 -0.25833657 0.42221397 -0.28658384 -0.14354679 -0.376761 -0.09522002
0.4552548 -0.19283105 -0.16342716 -0.42819288 0.079424925 -0.10085814 0.46211952 -0.25604475
0.19597943 0.12465025 -0.16288264 0.36529958 0.36516273 -0.101544514 0.12913136 -0.4135665
-0.054269444 -0.17936051 0.19823427 0.21289493 0.2769458 -0.2594367 0.20897104 0.20572957
-0.04985423 0.03413453 0.43233022 -0.4487387 -0.47742933 0.29238296 0.44438627 0.27724296
-0.0016194779 0.20453925 0.089573294 -0.34275246 0.30911732 -0.16368806 -0.43434405 0.17733371
-0.2477546 -0.5014473 0.16583094 -0.1819167 -0.28955686 0.3640744 -0.23076671 0.10378549
0.27784666 0.3645446 -0.32711282 -0.047332942 -0.43997005 -0.30555996 0.21362904 -0.2837489
0.07038211 -0.38488033 -0.3821644 -0.36626002 0.22182332 0.11350681 0.19778635 -0.016717663
00000000: 8957 643e af65 aa3e c484 e33e 9f7a 3fbc
00000010: ff38 aa3c 1276 c93e ae74 b03d 4e89 d53e
00000020: 4179 b93e 9659 813e 0f3d 993d 8ac4 c8be
00000030: 1c3b c03e 3295 babe 41a9 b53e 47eb ca3e
00000040: 7fd8 5cbe eeee b43e bb9f b53e a897 b8be
00000050: a300 75be fd6d bb3e 8a3a 10be 3539 b43e
00000060: 42a1 ee3d 5860 c9be b144 84be 6e2c d83e
00000070: 1ebb 92be eefd 12be d1e6 c0be b702 c3bd
00000080: 2817 e93e 8175 45be 7359 27be 193c dbbe
00000090: 89a9 a23d b68e cebd ee9a ec3e 4c18 83be
000000a0: d5ae 483e a148 ff3d b5ca 26be 8c08 bb3e
000000b0: 9cf6 ba3e 92f6 cfbd 033b 043e fdbe d3be
000000c0: a349 5ebd 48aa 37be edfd 4a3e 2101 5a3e
000000d0: d7cb 8d3e e3d4 84be 81fc 553e c6aa 523e
000000e0: f333 4cbd a6d0 0b3d 635a dd3e 14c1 e5be
000000f0: 9e71 f4be 38b3 953e 9986 e33e caf2 8d3e
00000100: a944 d4ba bd72 513e 3472 b73d 407d afbe
00000110: a044 9e3e d89d 27be 5862 debe f896 353e
00000120: 62b3 7dbe da5e 00bf 96cf 293e 5f48 3abe
00000130: cc40 94be f667 ba3e 1c4e 6cbe 7d8d d43d
00000140: eb41 8e3e 97a5 ba3e 557b a7be 30e0 41bd
00000150: c143 e1be 5b72 9cbe 92c1 5a3e 8947 91be
00000160: 7f24 903d 090f c5be 0dab c3be 6f86 bbbe
00000170: a725 633e 4276 e83d 8188 4a3e 7bf3 88bc

arith.constant4 f4 [3]
0.030496191 0.009455079 -0.025311982
00000000: 26d3 f93c 7ae9 1a3c 135b cfbc

arith.constant18 f4 [256, 6]
0.09203327 -0.16251226 -0.08866822 -0.07625456 -0.056161713 -0.05612589 -0.07294355 0.029164057
-0.040723506 -0.034660827 0.01824556 0.04665791 -0.13993916 -0.023128713 -0.080960706 0.10665783
-0.12773821 0.16135743 0.11353004 -0.13490304 0.07220725 0.107811056 -0.0802296 0.060544442
-0.04356899 0.056795828 0.118436925 0.124449745 -0.11161975 -0.114807665 -0.065059975 -0.008493129
-0.0038297777 -0.004874509 -0.093666025 0.087786704 0.040516675 -0.096798204 0.13161121 -0.13803792
-0.11402288 -0.081624456 -0.061158124 -0.1221496 0.13622162 -0.142685 0.10263153 0.057468694
-0.043454833 0.03485147 0.09139649 0.15050717 -0.13563986 0.021819228 0.04183723 0.10064687
-0.15695821 0.08267081 0.15849729 0.00021688174 -0.07838246 -0.07915071 0.16536368 -0.10610488
-0.030645384 0.02753427 0.17533742 0.10279011 0.12622741 -0.03956658 0.057725057 0.070738204
-0.052958045 -0.023409043 0.01973424 -0.09405167 -0.11535097 -0.07182947 0.113280736 0.029898487
-0.0225263 -0.05957756 0.040679753 0.09292284 0.09251413 0.07517332 -0.1435901 -0.14590552
0.08012172 0.14734349 -0.07889652 -0.07672974 -0.14413507 -0.070322834 -0.045355294 0.113400914
-0.017557051 0.17567171 0.06633357 -0.007506707 -0.11880358 0.0017549249 0.10102204 0.099654555
-0.06548609 -0.11376791 0.008827206 -0.10378603 -0.05633058 -0.17356728 -0.12521441 -0.031125681
0.089789905 0.08452768 -0.11611796 0.13854754 0.04387226 -0.1540352 0.06691301 0.049205713
-0.01983896 -0.09956072 -0.10167449 0.09568343 -0.06911423 0.019570613 -0.08096293 0.022744246
0.12758926 0.044825323 -0.09654689 0.029781085 0.05862473 0.06793114 0.037407696 -0.022149052
-0.006976181 0.057814114 0.17117025 -0.15596727 -0.0010235386 0.13037188 0.063786045 0.08538812
0.036927544 -0.084862135 0.060155366 -0.12091455 -0.00727451 0.017566314 -0.031002605 -0.08392529
0.044057135 0.057335116 0.030193856 0.03839699 0.0025188727 0.15475416 -0.018328298 0.13394469
0.072770454 -0.1316954 -0.14983311 -0.031067846 -0.15023974 -0.036445726 0.08003069 -0.065240026
-0.0055240314 0.11348471 -0.014556058 -0.04454715 0.09530199 -0.0885052 0.13394628 0.042652827
0.16108446 0.078462824 0.002700631 0.115680225 -0.023074595 -0.06653888 -0.0790939 0.07109818
0.13592127 0.16025282 0.053009603 0.11711082 0.086183384 -0.035295516 0.17573681 -0.03423048
-0.048190918 0.06288994 -0.045955416 0.012010513 -0.07644588 -0.06484218 0.036849897 -0.053697046
0.029516531 0.107589684 0.035960473 -0.16346203 0.086118914 -0.045880504 -0.0017519111 -0.07273472
0.17305377 0.039944008 -0.106398694 -0.086720765 -0.03180099 -0.03035699 -0.066521436 0.043324273
-0.08088345 -0.080940194 0.099770814 -0.031105017 -0.10087334 -0.111675784 -0.12316427 0.0076843332
0.0060146754 -0.08269155 0.03756338 -0.05129016 0.084969826 0.13204671 -0.03139474 -0.047750503
0.057342026 -0.012086972 0.07819511 -0.16990137 -0.10802387 -0.10217137 -0.12566094 0.0055907518
-0.0052196695 -0.020213116 0.030767644 0.05155518 0.08086064 0.033624902 -0.08980291 0.06175971
-0.034932543 0.11574473 -0.051687874 -0.0061505944 0.10889852 -0.11038155 -0.17198382 -0.13683873
00000000: f07b bc3d 9d69 26be af97 b5bd 5a2b 9cbd
00000010: d309 66bd 43e4 65bd 6e63 95bd 76e9 ee3c
00000020: b1cd 26bd 83f8 0dbd b677 953c 5d1c 3f3d
00000030: 364c 0fbe 6d78 bdbc bace a5bd 6c6f da3d
00000040: cecd 02be e23a 253e 7082 e83d 0624 0abe
00000050: 65e1 933d 0bcc dc3d 6b4f a4bd 73fd 773d
00000060: 6675 32bd bea2 683d 0f8f f23d 82df fe3d
00000070: e598 e4bd 4820 ebbd 2a3e 85bd c426 0bbc
00000080: 02fd 7abb 58ba 9fbb f9d3 bfbd 84c9 b33d
00000090: d0f4 253d 233e c6bd 17c5 063e d059 0dbe
000000a0: d484 e9bd b92a a7bd f180 7abd 9229 fabd
000000b0: ae7d 0b3e 041c 12be 7b30 d23d 4b64 6b3d
000000c0: b2fd 31bd 6ac0 0e3d 152e bb3d 8d1e 1a3e
000000d0: 2de5 0abe 3dbe b23c 845d 2b3d f21f ce3d
000000e0: a7b9 20be 504f a93d 1d4d 223e c06a 6339
000000f0: fc86 a0bd c419 a2bd 1955 293e 844d d9bd
00000100: 070c fbbc 8d8f e13c a78b 333e 9f83 d23d
00000110: c241 013e 9110 22bd 1c71 6c3d 31df 903d
00000120: 89ea 58bd 52c4 bfbc b3a9 a13c 299e c0bd
00000130: 213d ecbd 541b 93bd bbff e73d aced f43c
00000140: 1389 b8bc 9907 74bd d09f 263d 544e be3d
00000150: 0c78 bd3d 78f4 993d 4809 13be 4268 15be
00000160: db16 a43d 36e1 163e 8094 a1bd 7b24 9dbd
00000170: 2598 13be 6b05 90bd 79c6 39bd bd3e e83d
00000180: ced3 8fbc 49e3 333e e5d9 873d d3fa f5bb
00000190: 4b4f f3bd 8205 e63a a5e4 ce3d b017 cc3d
000001a0: 921d 86bd 26ff e8bd fc9f 103c c58d d4bd
000001b0: e5ba 66bd 9fbb 31be 3538 00be 49fb febc
000001c0: c5e3 b73d d91c ad3d 41cf edbd 68df 0d3e
000001d0: 66b3 333d 67bb 1dbe b009 893d ee8b 493d
000001e0: 5185 a2bc 7ee6 cbbd b73a d0bd adf5 c33d
000001f0: c38b 8dbd 8d52 a03c e5cf a5bd 2452 ba3c
00000200: c2a6 023e c29a 373d 60ba c5bd 76f7 f33c
00000210: 7c20 703d 7b1f 8b3d d038 193d ee71 b5bc
00000220: 7398 e4bb 7ece 6c3d 4147 2f3e e2b5 1fbe
00000230: 4228 86ba 3580 053e 42a2 823d f7df ae3d
00000240: 5641 173d 33cc adbd 7965 763d 0ca2 f7bd
00000250: 035f eebb 3be7 8f3c 2df9 fdbc 06e1 abbd
00000260: 4175 343d 3ad8 6a3d 1b59 f73c 2a46 1d3d
00000270: ac13 253b e077 1e3e 3a25 96bc cc28 093e
00000280: ad08 953d 29db 06be da6d 19be ff81 febc
00000290: 72d8 19be 1d48 15bd 21e7 a33d 909c 85bd
000002a0: ef02 b5bb ac6a e83d 887c 6ebc 1377 36bd
000002b0: b12d c33d 3742 b5bd 3729 093e bbb4 2e3d
000002c0: 53f3 243e 1eb1 a03d 12fd 303b c1e9 ec3d
000002d0: ef06 bdbc 8945 88bd fcfb a1bd ec9b 913d
000002e0: f22e 0b3e 5119 243e 9920 593d ccd7 ef3d
000002f0: ea80 b03d 0892 10bd 5af4 333e 4335 0cbd
00000300: d763 45bd 71cc 803d bf3b 3cbd bec7 443c
00000310: a88f 9cbd facb 84bd ebef 163d 6ff1 5bbd
00000320: a7cc f13c fb57 dc3d 4a4b 133d 9762 27be
00000330: 1d5f b03d 32ed 3bbd 62a0 e5ba f1f5 94bd
00000340: 0235 313e 549c 233d 8fe7 d9bd a89a b1bd
00000350: c141 02bd 39af f8bc 643c 88bd cb74 313d
00000360: 39a6 a5bd f9c3 a5bd a454 cc3d f3cf febc
00000370: af96 cebd 46b6 e4bd 8c3d fcbd dccc fb3b
00000380: c116 c53b 305a a9bd 0fdc 193d a115 52bd
00000390: a904 ae3d 4137 073e c597 00bd 0896 43bd
000003a0: 79df 6a3d 6f08 46bc c224 a03d a0fa 2dbe
000003b0: 9e3b ddbd 393f d1bd 43ad 00be a032 b73b
000003c0: c309 abbb fa95 a5bc 6d0c fc3c 862b 533d
000003d0: 439a a53d 44ba 093d 97ea b7bd c0f7 7c3d
000003e0: 6d15 0fbd 930b ed3d aab6 53bd ed8a c9bb
000003f0: 3006 df3d b90f e2bd 871c 30be 741f 0cbe

arith.constant19 f4 [256, 64]
0.008957799 0.011338808 0.13356581 0.012939865 -0.02708429 0.043519262 -0.021272287 0.0040291823
0.10657392 -0.032194965 0.020491276 0.042655215 0.1457284 0.10609558 -0.053652633 0.04731775
-0.03532051 0.17960542 0.0008519486 0.11133646 -0.010532387 -0.04213453 -0.05888049 -0.079072416
-0.07646035 0.060111303 -0.04016392 -0.05618255 0.022314586 0.06455085 -0.04386004 0.087948605
0.025367498 -0.12332442 -0.005318863 -0.038569666 0.01646514 -0.09015355 -1.5891821e-05 -0.0644739
0.1336932 -0.08678663 -0.14247927 0.04411277 -0.018166414 0.08913809 -0.026732031 0.039810166
-0.07232095 0.0257653 0.054777943 0.04171931 0.065808415 -0.011503342 0.05219343 -0.014036859
-0.074066974 0.007301488 -0.07016339 -0.03520485 -0.103879 0.01807761 -0.14080817 0.04826476
0.1232541 0.010541224 0.04802649 0.04070702 -0.011562819 0.04145709 0.15036501 0.16418701
0.029996678 -0.0263502 -0.0050927834 -0.011178001 -0.12276779 -0.02539872 -0.09839319 0.10966931
0.042087972 -0.027878026 0.0033612782 -0.12508571 -0.003072288 -0.001468625 0.28768215 -0.019073104
0.022641875 -0.061903894 0.09132371 -0.027761936 -0.00011264316 0.030644279 0.006163424 0.15336019
-0.08052685 0.021313427 0.07120363 -0.07453783 -0.07980454 -0.041729886 0.15710947 0.015778905
-0.016693965 0.030468207 0.10563951 0.0687744 0.02315967 0.033186797 -0.04516577 0.06989939
0.0061694724 -0.04604329 0.20370744 -0.030876318 0.06969363 0.01321792 -0.051279984 -0.054347165
0.013877398 -0.007337392 -0.13365239 0.0381097 -0.057415653 -0.07948842 -0.045383178 -0.02760302
0.005098195 -0.00019940062 -0.031676393 0.007859683 0.005349556 0.068147786 -0.05656891 0.011325255
-0.048184756 -0.07281692 -0.0015162076 0.0013921966 -0.04537151 0.14873132 -0.12180773 0.004331307
0.10365147 -0.069604 -0.08809956 -0.101265244 -0.094384365 0.04983827 0.10914038 -0.09563456
-0.032334626 0.030207818 0.076529376 0.07134767 0.06315101 0.0020312618 0.037803102 -0.006967134
-0.06336429 0.022195745 0.016591977 0.048462003 -0.004025772 -0.082143 0.022542307 0.06775047
-0.041106023 0.046467397 0.01981363 -0.030822657 -0.14869352 -0.09001552 -0.07866133 -0.12585323
-0.030370297 0.015457188 0.019913794 0.07114669 -0.057108004 0.038526345 -0.0055746036 -0.008066692
0.1518197 -0.02280814 -0.04386134 -0.046436787 -0.04742404 -0.14822002 0.060018137 0.033426464
0.08287448 0.0051654973 -0.02218823 -0.056878388 -0.0246424 0.058034934 -0.04675892 -0.066869445
-0.0160166 0.03352352 0.052582327 -0.044162728 -0.09312168 -0.017890735 -0.12666813 -0.043354753
-0.04572605 0.111150876 -0.03888428 -0.0697301 -0.09896652 0.079027 0.046739943 -0.016772691
0.0435839 -0.0012471211 -0.0164304 -0.0060436763 -0.038989935 -0.0349802 -0.035834026 0.116480656
-0.05531541 0.029152812 0.054403033 -0.019308425 0.099506006 -0.050206013 0.013264874 -0.093768224
0.019734416 -0.00698743 0.05031067 -0.17256658 0.053062033 0.0032017864 0.06747666 -0.016526531
0.09705144 0.02958584 0.0381374 0.11076848 0.037302602 -0.17850056 -0.047973692 0.009383256
0.04393945 0.11644212 0.02152056 0.10037342 0.050786167 -0.13673997 0.02093237 0.013136746
00000000: bbc3 123c 68c6 393c 7ac5 083e ba01 543c
00000010: dfdf ddbc 4141 323d 3843 aebc 3b07 843b
00000020: 6d43 da3d dede 03bd 52dd a73c 3cb7 2e3d
00000030: d339 153e a448 d93d ddc2 5bbd 42d0 413d
00000040: 3dac 10bd 7cea 373e 4d55 5f3a 5f04 e43d
00000050: 0890 2cbc 4295 2cbd ab2c 71bd b8f0 a1bd
00000060: 3e97 9cbd 4537 763d ec82 24bd ac1f 66bd
00000070: 14cd b63c 3c33 843d 96a6 33bd 661e b43d
00000080: 80cf cf3c 8391 fcbd db49 aebb 3afb 1dbd
00000090: e7e1 863c 6da2 b8bd 6d4f 85b7 e40a 84bd
000000a0: dfe6 083e 30bd b1bd 16e6 11be 98af 343d
000000b0: bbd1 94bc 088e b63d 22fd dabc fc0f 233d
000000c0: 021d 94bd c011 d33c d65e 603d dee1 2a3d
000000d0: 90c6 863d 8378 3cbc c7c8 553d dbfa 65bc
000000e0: 6db0 97bd 5241 ef3b d3b1 8fbd f632 10bd
000000f0: 83be d4bd 7f17 943c 0430 10be 45b1 453d
00000100: a56c fc3d 19b5 2c3c 6db7 443d 67bc 263d
00000110: fa71 3dbc e9ce 293d 49f9 193e a420 283e
00000120: 98bb f53c 60dc d7bc 5de1 a6bb ef23 37bc
00000130: ae6d fbbd fa10 d0bc 5e82 c9bd 4e9a e03d
00000140: 7064 2c3d 7560 e4bc e448 5c3b 7816 00be
00000150: 7058 49bb e17e c0ba 134b 933e 333f 9cbc
00000160: 747b b93c f08e 7dbd ed07 bb3d 006d e3bc
00000170: d63a ecb8 b609 fb3c 8cf6 c93b 740a 1d3e
00000180: 43eb a4bd 7f99 ae3c 35d3 913d 4aa7 98bd
00000190: 9070 a3bd f5ec 2abd 4ee1 203e c342 813c
000001a0: c8c1 88bc 7698 f93c 8759 d83d 98d9 8c3d
000001b0: 59b9 bd3c e1ee 073d beff 38bd 6927 8f3d
000001c0: 4929 ca3b e497 3cbd af98 503e 55f0 fcbc
000001d0: 89bb 8e3d fa8f 583c f60a 52bd 229b 5ebd
000001e0: 075e 633c 816e f0bb 2cdc 08be eb18 1c3d
000001f0: ad2c 6bbd d3ca a2bd b6e3 39bd bb1f e2bc
00000200: c20e a73b 3216 51b9 1bbf 01bd e6c5 003c
00000210: 544b af3b 1191 8b3d cdb4 67bd 908d 393c
00000220: 615d 45bd 0a21 95bd 7cbb c6ba 5e7a b63a
00000230: 7ad7 39bd 064d 183e 5576 f9bd a3ed 8d3b
00000240: 3947 d43d 8b8c 8ebd 8b6d b4bd 2764 cfbd
00000250: 974c c1bd 3723 4c3d fe84 df3d 0ddc c3bd
00000260: 5071 04bd 6376 f73c 6fbb 9c3d ba1e 923d
00000270: 5155 813d eb1e 053b 6dd7 1a3d 8e4c e4bb
00000280: 23c5 81bd dad3 b53c e6eb 873c 1880 463d
00000290: a0ea 83bb 973a a8bd a5aa b83c c2c0 8a3d
000002a0: ca5e 28bd 9954 3e3d 3250 a23c cc7f fcbc
000002b0: 1d43 18be 0f5a b8bd 3119 a1bd abdf 00be
000002c0: 21cb f8bc 2540 7d3c 4122 a33c 5bb5 913d
000002d0: 15ea 69bd cdcd 1d3d 2aab b6bb 292a 04bc
000002e0: a076 1b3e 23d8 babc f3a7 33bd 8034 3ebd
000002f0: b63f 42bd fdc6 17be 94d5 753d 30ea 083d
00000300: 18ba a93d 5543 a93b 17c4 b5bc 50f9 68bd
00000310: dcde c9bc 0ab6 6d3d 4886 3fbd d9f2 88bd
00000320: 3f35 83bc f54f 093d 9160 573d fae3 34bd
00000330: 94b6 bebd 978f 92bc 4ab5 01be c194 31bd
00000340: 3d4b 3bbd 12a3 e33d 1f45 1fbd a8ce 8ebd
00000350: f5ae cabd e8d8 a13d 6272 3f3d e266 89bc
00000360: 0885 323d 7176 a3ba 0c99 86bc 080a c6bb
00000370: e9b3 1fbd 6647 0fbd b3c6 12bd 698d ee3d
00000380: 6992 62bd e1d1 ee3c b7d5 5e3d b42c 9ebc
00000390: cec9 cb3d d2a4 4dbd ea54 593c 8e09 c0bd
000003a0: 12aa a13c d0f6 e4bb 9012 4e3d 4bb5 30be
000003b0: 9357 593d 10d5 513b 3431 8a3d a662 87bc
000003c0: e8c2 c63d 015e f23c f635 1c3d 96da e23d
000003d0: 9dca 183d dac8 36be 1080 44bd 3abc 193c
000003e0: daf9 333d 3579 ee3d e34b b03c 9490 cd3d
000003f0: 2805 503d 9005 0cbe 5d7a ab3c 823b 573c

sequential_1/lstm_1/while/lstm_cell_1/add_1/ReadVariableOp f4 [256]
0.036079884 0.04280364 0.043177426 0.046553764 0.044271 0.008728341 0.0032517717 0.038435955
0.034638613 0.02532932 -0.010617599 0.018170562 0.0420359 0.046767835 0.030476745 0.027155183
0.037514847 0.047306478 -0.0011553768 0.031253476 0.044450335 0.0409085 0.012906375 0.035092093
0.044082932 0.016599074 0.03140465 0.03649546 0.04003033 0.041316546 0.04301433 0.01797036
0.007786854 0.041722506 0.04851033 0.043656386 0.030333659 0.044463225 0.028234467 0.034089323
0.034813553 0.043426286 0.03544421 0.03454104 0.039376087 0.03439023 0.041184384 0.018298753
0.04012128 0.045726057 0.04354087 0.011007114 0.025933743 0.031773653 0.033651825 0.033245727
0.035903186 0.032328185 0.046401594 0.03908865 0.032620948 0.050640933 0.041763514 0.02936508
1.0409424 1.0344418 1.0316423 1.0374277 1.0341328 0.99345225 1.0002192 1.0401291
1.0309237 1.0115303 0.99365073 1.0126189 1.0303007 1.0345604 1.0548651 1.0161661
1.023864 1.0254471 1.0124966 1.0297906 1.0379918 1.0329894 1.0149297 1.0278391
1.0374708 1.0138932 1.0326481 1.0297747 1.0231135 1.03281 1.0343361 1.0435265
0.9746158 1.0326319 1.0362812 1.0360249 1.0195353 1.0324931 1.027793 1.0352571
1.0326148 1.0303974 1.0356766 1.0213293 1.0231489 1.0306838 1.0367811 1.0084125
1.033152 1.0412549 1.0356417 1.010866 1.0249813 1.0330938 1.0165274 1.0278288
1.0249896 1.0295148 1.0300851 1.0211567 1.0209204 1.0451964 1.032894 1.026164
0.03156639 -0.014296382 0.02259894 -0.031261105 0.02462629 -0.025543526 -0.020503273 0.029607207
0.03915919 -0.0019467869 0.017275084 -0.04776251 0.027772633 0.03583931 -0.041779947 -0.028328728
-0.0024056043 0.009330684 -0.03467206 -0.008660775 0.03793526 0.028303139 0.037567332 -0.03760913
-0.03389778 -0.028903103 0.03275195 0.009204772 -0.0050910735 -0.010131833 -0.030398626 0.041597053
-0.0019118291 0.009304 0.030199898 0.036161944 0.03599836 -0.0050726645 0.015644904 0.031258143
-0.02716557 -0.027728984 0.028890984 -0.007205662 -0.0032402053 0.016411 0.028155163 0.01386644
-0.0056713964 -0.013673156 0.00067393086 0.016137386 -0.025492013 -0.031130483 0.014035228 0.02563593
-0.03440865 0.038412653 -0.036574848 -0.024641106 -0.027444547 -0.03792241 0.007733855 0.0013783362
0.047684666 0.047923323 0.042997185 0.04864713 0.044545416 0.0019162365 0.0041189506 0.0465765
0.039999384 0.041791447 -0.00840649 0.03876389 0.042986386 0.050774917 0.07501978 0.028789798
0.035793837 0.05512895 0.008639422 0.034879845 0.043603715 0.045179486 0.021716086 0.04150503
0.05024708 0.04380408 0.03397381 0.047252025 0.049019203 0.043715518 0.04356593 0.04800723
0.003904701 0.047720306 0.060491137 0.04408595 0.027895125 0.046557914 0.040973913 0.033769414
0.03629163 0.043981377 0.037147786 0.036351625 0.044482145 0.035643786 0.043825556 0.022123728
0.043334268 0.05266949 0.047418945 0.021452887 0.02923336 0.044337448 0.037317373 0.036354057
0.03906973 0.03510415 0.058844175 0.038718432 0.03520015 0.060201097 0.044826414 0.032513466
00000000: 80c8 133d df52 2f3d d0da 303d 29af 3e3d
00000010: 8255 353d 5101 0f3c ad1b 553b 056f 1d3d
00000020: 38e1 0d3d 6f7f cf3c 70f5 2dbc 6eda 943c
00000030: d62d 2c3d a18f 3f3d 5eaa f93c 8c74 de3c
00000040: 2ba9 193d 70c4 413d 0370 97ba a503 003d
00000050: 8e11 363d ac8f 273d 4375 533c babc 0f3d
00000060: 4e90 343d c8fa 873c 2aa2 003d 437c 153d
00000070: d8f6 233d 8a3b 293d cb2f 303d 9436 933c
00000080: de28 ff3b 38e5 2a3d c5b2 463d 0ad1 323d
00000090: 4b7e f83c 121f 363d f84b e73c 3fa1 0b3d
000000a0: a898 0e3d c3df 313d f32d 113d e87a 0d3d
000000b0: d248 213d c5dc 0c3d f5b0 283d 44e7 953c
000000c0: 3656 243d 3f4b 3b3d e957 323d 2f57 343c
000000d0: 0073 d43c 1725 023d 7fd6 093d ac2c 083d
000000e0: 380f 133d 8f6a 043d 990f 3e3d 6c1b 203d
000000f0: 8b9d 053d de6c 4f3d 3810 2b3d 098f f03c
00000100: 9a3d 853f 9768 843f db0c 843f 6eca 843f
00000110: 775e 843f e352 7e3f 2f07 803f f322 853f
00000120: 4ff5 833f d379 813f e55f 7e3f 7f9d 813f
00000130: e5e0 833f 7a6c 843f d205 873f bb11 823f
00000140: fa0d 833f da41 833f 7d99 813f 2ed0 833f
00000150: eadc 843f ff38 843f 37e9 813f 3b90 833f
00000160: d8cb 843f 41c7 813f d02d 843f a8cf 833f
00000170: 62f5 823f 1e33 843f 2065 843f 4792 853f
00000180: 6c80 793f 482d 843f dda4 843f 779c 843f
00000190: 2280 823f bc28 843f b98e 833f 4e83 843f
000001a0: b92c 843f 10e4 833f 0d91 843f ebba 823f
000001b0: 8bf6 823f 72ed 833f 3eb5 843f a913 813f
000001c0: 533e 843f d747 853f e88f 843f 0f64 813f
000001d0: 9632 833f 6b3c 843f 921d 823f e58f 833f
000001e0: dc32 833f 24c7 833f d4d9 833f 43b5 823f
000001f0: 85ad 823f ffc8 853f df35 843f 5859 833f
00000200: c24b 013d 5f3b 6abc 6a21 b93c a50b 00bd
00000210: 13bd c93c a840 d1bc 7bf6 a7bc d08a f23c
00000220: 6365 203d 542b ffba 7a84 8d3c 9fa2 43bd
00000230: 6f83 e33c 3ecc 123d 7321 2bbd a611 e8bc
00000240: 58a7 1dbb badf 183c 4a04 0ebd ece5 0dbc
00000250: 0162 1b3d fcdb e73c 34e0 193d 080c 1abd
00000260: 66d8 0abd 33c6 ecbc e926 063d 9dcf 163c
00000270: 05d3 a6bb fdff 25bc 8a06 f9bc ac61 2a3d
00000280: 5796 faba ce6f 183c c765 f73c 8c1e 143d
00000290: 0473 133d 9838 a6bb be29 803c 8a08 003d
000002a0: 548a debc e527 e3bc c9ac ec3c 791d ecbb
000002b0: a059 54bb 5d70 863c a8a5 e63c 1130 633c
000002c0: 1fd7 b9bb 5f05 60bc bcaa 303a 8d32 843c
000002d0: a0d4 d0bc 5b05 ffbc 03f4 653c 7102 d23c
000002e0: 16f0 0cbd 9656 1d3d 82cf 15bd 25dc c9bc
000002f0: 63d3 e0bc 8754 1bbd 476c fd3b 4aa9 b43a
00000300: ff50 433d 3f4b 443d d11d 303d 3742 473d
00000310: 4175 363d 3a2a fb3a 43f8 863b 00c7 3e3d
00000320: 65d6 233d 822d 2b3d 60bb 09bc e2c6 1e3d
00000330: 7e12 303d 5cf9 4f3d f8a3 993d 95d8 eb3c
00000340: 8f9c 123d e5ce 613d 5d8c 0d3c 2bde 0e3d
00000350: cf99 323d 200e 393d efe5 b13c 2e01 2a3d
00000360: e2cf 4d3d e86b 333d 1f28 0b3d 578b 413d
00000370: 5cc8 483d 0b0f 333d 3072 323d 3ba3 443d
00000380: 03e6 7f3b 5e76 433d 8ec5 773d 7893 343d
00000390: 5184 e43c 83b3 3e3d 43d4 273d cc51 0a3d
000003a0: 88a6 143d d125 343d 4728 183d 71e5 143d
000003b0: e932 363d 38ff 113d 6d82 333d d23c b53c
000003c0: 467f 313d f7bb 573d 5e3a 423d f7bd af3c
000003d0: cd7a ef3c 2f9b 353d 1ada 183d fee7 143d
000003e0: 9507 203d 5fc9 0f3d 9706 713d 3897 1e3d
000003f0: 082e 103d 6d95 763d e79b 373d d72c 053d

arith.constant23 f4 [128, 64]
0.052019745 -0.004615625 -0.03969333 0.007478207 -0.17497733 0.021681419 0.11897796 0.014753441
0.14187707 -0.19388549 -0.10834691 -0.0296335 -0.04832023 -0.09853571 0.09840159 -0.060783077
0.008116745 0.167774 -0.14380386 -0.017466465 -0.010777152 0.12736529 0.092821755 -0.03700892
-0.08589108 -0.03761626 0.14426465 0.0737783 -0.15524167 -0.04587297 -0.037181895 -0.07257962
0.098851405 -0.14171395 -0.020895934 0.14283444 -0.09530811 0.10502296 -0.10978502 0.15392509
0.06911976 -0.14128932 -0.061096165 0.18154193 -0.13933131 -0.12559757 -0.10224185 -0.036810566
-0.0737943 0.15803221 0.027688392 0.018504348 0.08641486 -0.10220015 -0.01271097 -0.108184546
-0.14191648 0.09936596 0.038884953 0.09671519 0.05072754 -0.23912475 0.14784464 0.11944335
-0.08995942 0.103852205 0.052186374 -0.101754904 0.15205704 -0.092147745 -0.049545 -0.044541795
0.088217564 -0.04634174 0.07651768 0.09641438 0.05871616 -0.073811665 -0.20705521 -0.13422011
0.16508205 0.09525881 -0.14889532 0.017713808 -0.061685637 0.1868371 0.11974229 0.036285453
0.030688807 -0.0070011658 -0.13350679 -0.10351368 -0.15044 0.051105358 0.11978983 -0.04504461
-0.089453645 0.020235715 0.17763606 0.03127143 -0.08726581 -0.016491095 0.11098052 -0.06365194
-0.10579677 -0.13621947 0.101281896 -0.10182008 -0.11720921 -0.028173579 0.1351852 0.12271796
-0.09784955 0.015312214 -0.032558225 0.029300913 0.09129957 0.10604759 0.09584367 0.17007327
0.110797636 0.119542636 -0.03843842 -0.07685018 -0.06619614 -0.15374814 -0.13287987 -0.12437166
-0.06152447 -0.11179011 0.11030999 -0.11831282 0.14337324 0.092912555 -0.14592093 0.13067494
0.0252034 -0.027037442 0.10742392 0.012479293 0.009796125 0.008123719 0.03460175 0.02134217
0.09107737 -0.20350961 0.07325677 -0.041701563 0.10626242 0.01904667 0.21745858 -0.0034205504
0.15944871 -0.16814916 0.1349628 0.13767785 0.05336481 0.084335655 0.11211335 0.18683453
0.05536234 0.15985256 -0.0065909326 0.005674974 -0.09186598 -0.13037439 -0.042543977 -0.11312028
0.09578221 0.13530986 0.17674667 -0.124167055 -0.19165003 -0.11413521 -0.053413 -0.0043280423
0.15262736 -0.1855931 0.1123829 0.013035433 -0.09156667 -0.050607074 0.07970006 0.03653782
-0.13242486 0.019838529 -0.02791506 0.08551837 0.046357132 0.020948738 0.15334061 0.17143609
0.18258792 0.008103978 -0.1508482 0.0456896 -0.016613608 -0.042853564 0.03820599 0.122319095
-0.13331486 0.15085872 0.05964353 -0.061489135 -0.12785204 -0.111222066 -0.071461655 0.11477588
0.19337896 -0.09029435 -0.08659207 0.09254864 -0.02163924 -0.101391494 0.07409675 -0.0052140234
0.18074542 0.11020984 -0.019552385 -0.04859609 0.08590177 0.05481239 0.14800847 0.029927533
0.08478353 0.14385839 0.037126448 0.04629489 0.026953224 0.12966731 -0.04881363 -0.08803733
0.10901158 0.0100252805 -0.08114017 0.0047203265 -0.12932464 -0.07601953 -0.09691564 -0.15948014
0.03925189 -0.22108607 -0.07570822 -0.08761018 -0.17983943 0.041514874 -0.04337753 0.056676097
0.12981275 0.113853715 0.07745572 0.18827766 0.1860032 -0.13330024 -0.033515923 0.16611637
00000000: a812 553d ab3e 97bb 7995 22bd bf0b f53b
00000010: 422d 33be 3b9d b13c b7aa f33d 6bb8 713c
00000020: 3948 113e eb89 46be fce4 ddbd f4c1 f2bc
00000030: 6feb 45bd 17cd c9bd c686 c93d adf7 78bd
00000040: 19fc 043c f3cc 2b3e 5241 13be d515 8fbc
00000050: a792 30bc 0c6c 023e 5519 be3d aa96 17bd
00000060: aae7 afbd 8213 1abd 1dba 133e 1419 973d
00000070: acf7 1ebe 4ce5 3bbd 0b4c 18bd a0a4 94bd
00000080: 9b72 ca3d 761d 11be f32d abbc 3143 123e
00000090: e630 c3bd 4716 d73d f8d6 e0bd 8a9e 1d3e
000000a0: a98e 8d3d 26ae 10be f93f 7abd 21e6 393e
000000b0: deac 0ebe a69c 00be 2d64 d1bd adc6 16bd
000000c0: 7721 97bd 32d3 213e c4d2 e23c 6e96 973c
000000d0: 46fa b03d 504e d1bd ac41 50bc dc8f ddbd
000000e0: 8e52 11be 6180 cb3d d445 1f3d 9d12 c63d
000000f0: aec7 4f3d 1edd 74be 9664 173e b79e f43d
00000100: a53c b8bd 77b0 d43d 61c1 553d e064 d0bd
00000110: d7b4 1b3e f5b7 bcbd b3ef 4abd 7571 36bd
00000120: 69ab b43d d6d0 3dbd 4db5 9c3d e774 c53d
00000130: 5b80 703d 922a 97bd 4806 54be ff70 09be
00000140: 450b 293e 0d17 c33d 0478 18be 8c1c 913c
00000150: 14aa 7cbd 3a52 3f3e 723b f53d 0ea0 143d
00000160: 1867 fb3c 096a e5bb 01b6 08be fbfe d3bd
00000170: f20c 1abe da53 513d 5f54 f53d b280 38bd
00000180: 7933 b7bd 5fc5 a53c 3ae6 353e 7916 003d
00000190: 6bb8 b2bd 5518 87bc c149 e33d f35b 82bd
000001a0: faab d8bd 1e7d 0bbe e26c cf3d 0c87 d0bd
000001b0: 620b f0bd 47cc e6bc fd6d 0a3e 8e53 fb3d
000001c0: 5865 c8bd 15e0 7a3c c65b 05bd 7808 f03c
000001d0: 45fb ba3d 7b2f d93d b049 c43d b027 2e3e
000001e0: dfe9 e23d c5d2 f43d 9b71 1dbd a163 9dbd
000001f0: d891 87bd 2770 1dbe a911 08be 92b6 febd
00000200: 1501 7cbd 37f2 e4bd 34ea e13d fe4d f2bd
00000210: 6fd0 123e f048 be3d 4c6c 15be a7cf 053e
00000220: 5c77 ce3c a07d ddbc 1201 dc3d f375 4c3c
00000230: ed7f 203c 5919 053c 91ba 0d3d c6d5 ae3c
00000240: c686 ba3d d364 50be a507 963d 42cf 2abd
00000250: 1da0 d93d c307 9c3c 76ad 5e3e 502b 60bb
00000260: 8646 233e 4b2f 2cbe b033 0a3e 6cfb 0c3e
00000270: 0f95 5a3d 2cb8 ac3d af9b e53d 8d51 3f3e
00000280: 9fc3 623d 64b0 233e c0f8 d7bb 22f5 b93b
00000290: 3b24 bcbd dd80 05be 9842 2ebd 9bab e7bd
000002a0: 7729 c43d ab8e 0a3e 14fd 343e 4c4b febd
000002b0: e83f 44be b9bf e9bd 97c7 5abd 40d2 8dbb
000002c0: 594a 1c3e 1e0c 3ebe 0229 e63d 9292 553c
000002d0: 4e87 bbbd 5d49 4fbd c939 a33d aea8 153d
000002e0: 629a 07be 6984 a23c 20ae e4bc 4124 af3d
000002f0: fae0 3d3d b09c ab3c 5205 1d3e f18c 2f3e
00000300: 54f8 3a3e 8cc6 043c f377 1abe 0525 3b3d
00000310: 4319 88bc 3887 2fbd e27d 1c3d 6f82 fa3d
00000320: b183 08be b57a 1a3e c64c 743d 08dc 7bbd
00000330: a5eb 02be 65c8 e3bd 7d5a 92bd 9e0f eb3d
00000340: 2205 463e 3fec b8bd 2f57 b1bd 248a bd3d
00000350: c744 b1bc 58a6 cfbd 09c0 973d 66da aabb
00000360: 5415 393e b2b5 e13d 532c a0bc b20c 47bd
00000370: 44ed af3d f582 603d 888f 173e 962a f53c
00000380: fda2 ad3d 9d4f 133e e711 183d b69f 3d3d
00000390: 02cd dc3c 82c7 043e cdf0 47bd ea4c b4bd
000003a0: 7741 df3d 1341 243c d12c a6bd f8ac 9a3b
000003b0: ae6d 04be 21b0 9bbd b57b c6bd c34e 23be
000003c0: 97c6 203d 6364 62be e90c 9bbd f76c b3bd
000003d0: d427 38be 800b 2a3d a3ac 31bd 3225 683d
000003e0: a2ed 043e 232c e93d 1ba1 9e3d dccb 403e
000003f0: 9f77 3e3e dc7f 08be fe47 09bd 691a 2a3e

arith.constant24 f4 [128, 32]
0.010326443 0.07472207 -0.16210046 -0.0042019384 -0.072086796 -0.12090499 -0.1561103 -0.024007425
0.12885524 0.064045 0.04693254 0.0021435015 0.0066739595 -0.08668165 0.032859117 0.058077183
0.013845045 0.10574846 -0.082168646 0.07169801 0.14049879 0.00029978852 -0.16928592 0.015564271
0.10131986 0.015272842 0.0013360333 -0.09623131 0.05639331 -0.04682445 -0.05024613 0.068650134
0.041936498 0.0044861436 0.014669729 0.13126324 -0.03769194 -0.114765435 -0.034861267 -0.02030977
-0.04245996 -0.030950723 -0.097491585 0.01981683 0.20734952 0.007924093 -0.12367456 -0.004291387
-0.11419045 -0.03090348 -0.003000407 0.14830074 0.03489881 0.09902437 -0.08921933 0.008854559
0.080087356 -0.20343503 0.09686346 -0.020862391 0.012157897 0.034808155 0.008837079 0.11880012
0.058030494 0.08345056 0.1592523 -0.0026954424 -0.2122666 -0.1569377 -0.034175135 -0.058991395
-0.16720928 0.058688883 0.0029006081 0.07784799 0.03515395 -0.018069053 0.0468139 -0.025933288
-0.17111531 -0.032214444 0.06363377 -0.23510525 0.14997944 0.061133415 -0.13634346 -0.050566487
0.061076242 0.070748344 0.082523055 0.011699464 0.05690528 -0.055096466 0.054507073 0.05096366
0.09160738 0.07081678 0.12533489 -0.16607155 -0.09862421 0.058531422 0.010949342 -0.029991461
0.23156999 0.14488205 -0.23672962 0.04231545 -0.031245895 -0.034851484 0.19879453 -0.08783931
-0.092332505 0.15209824 0.049420994 -0.0722559 -0.004988896 0.06600064 -0.24366099 0.0020326418
0.08972244 -0.05938454 -0.049167488 -0.031373605 0.05044488 0.018822227 0.119715706 0.08751862
0.102258556 -0.020353025 0.044239406 -0.019824143 -0.030296495 -0.07149287 0.16715658 -0.075405255
0.08777293 -0.16488224 0.029998844 0.061648954 -0.093524344 -0.09656843 0.018282413 0.13006228
0.06673553 0.032208774 -0.009391878 0.065472595 -0.04200162 0.074211285 0.21991447 -0.08106327
-0.009208269 -0.026214149 0.1596127 -0.08760821 -0.04042456 0.028675385 0.049859844 0.23562323
0.17941178 0.012372742 0.058233317 -0.040787898 -0.042071704 0.06569644 0.11253479 0.007709416
0.07019674 0.1927211 0.05543465 0.08073377 0.027541121 0.1258513 0.028327337 0.08262153
-0.09702701 0.0883944 -0.12446314 -0.06799675 0.20706923 0.13390346 -0.006633621 -0.010864267
0.23598218 0.02973485 0.04015774 0.07352769 0.12394994 0.009843497 -0.025875255 -0.10141992
-0.029592883 0.069772534 0.056274183 0.0546797 -0.026006497 0.010679506 -0.09471966 0.08453619
-0.11961457 0.055227853 -0.0030039165 0.062194444 -0.07336786 0.021758083 0.057587046 -0.10443563
0.22890559 0.17034425 -0.046765633 0.08169426 0.06423975 0.014829942 -0.06960158 0.22374994
-0.045478344 0.0052832565 -0.028669141 -0.04230545 -0.021157663 0.008436044 0.051707 0.041347604
0.06216608 0.10396931 0.015061005 -0.02849182 -0.06978104 -0.093844324 0.04546498 -0.08071278
0.022412146 0.12142096 -0.09787636 -0.049100354 0.13764268 -0.10154266 0.004046105 -0.109529346
-0.16322027 -0.027861506 -0.019182088 -0.086168595 -0.016865058 -0.08620635 -0.09898948 0.18919526
0.054703616 0.21805488 0.046286244 0.029917866 0.09019291 0.121142715 -0.054678585 -0.020354751
00000000: 3e30 293c e207 993d aafd 25be 6ab0 89bb
00000010: 3ea2 93bd 099d f7bd 61db 1fbe 38ab c4bc
00000020: a1f2 033e 062a 833d 563c 403d fd79 0c3b
00000030: 3bb1 da3b 2686 b1bd 4897 063d 57e2 6d3d
00000040: 54d6 623c a692 d83d 0948 a8bd 68d6 923d
00000050: eade 0f3e ef2c 9d39 4a59 2dbe 4901 7f3c
00000060: c980 cf3d f13a 7a3c d71d af3a ec14 c5bd
00000070: acfc 663d ffca 3fbd e3ce 4dbd 7198 8c3d
00000080: 9bc5 2b3d 8000 933b 4e59 703c df69 063e
00000090: dd62 1abd 240a ebbd b0ca 0ebd ad60 a6bc
000000a0: 7fea 2dbd 5f8c fdbc aba9 c7bd e856 a23c
000000b0: 6f53 543e 0ed4 013c 1649 fdbd c39e 8cbb
000000c0: afdc e9bd 4b29 fdbc 7aa2 44bb 26dc 173e
000000d0: 0ef2 0e3d 4acd ca3d a0b8 b6bd b612 113c
000000e0: d704 a43d 4651 50be 5a60 c63d 9be7 aabc
000000f0: eb31 473c ff92 0e3d 65c9 103c 7a4d f33d
00000100: 62b1 6d3d 21e8 aa3d 0913 233e 05a6 30bb
00000110: 6a5c 59be 47b4 20be 3afb 0bbd f6a0 71bd
00000120: e938 2bbe c163 703d 2118 3e3b c46e 9f3d
00000130: 97fd 0f3d 8d05 94bc efbf 3f3d 0c72 d4bc
00000140: da38 2fbe 4bf3 03bd 6c52 823d 6ebf 70be
00000150: 3694 193e 0867 7a3d 9f9d 0bbe ce1e 4fbd
00000160: 152b 7a3d 82e4 903d d901 a93d 1caf 3f3c
00000170: 8315 693d d5ac 61bd cf42 5f3d 45bf 503d
00000180: a69c bb3d 6308 913d ca57 003e a90e 2abe
00000190: 7dfb c9bd a5be 6f3d de64 333c a7b0 f5bc
000001a0: af20 6d3e f65b 143e 4069 72be f752 2d3d
000001b0: 64f7 ffbc 6ec0 0ebd cb90 4b3e 19e5 b3bd
000001c0: d318 bdbd a4bf 1b3e ab6d 4a3d e7fa 93bd
000001d0: e579 a3bb 582b 873d 4482 79be 1236 053b
000001e0: 66c0 b73d 343d 73bd d963 49bd 9c81 00bd
000001f0: 4a9f 4e3d 1231 9a3c 822d f53d f63c b33d
00000200: ef6c d13d 63bb a6bc 6134 353d 3e66 a2bc
00000210: 5b30 f8bc db6a 92bd 182b 2b3e 126e 9abd
00000220: 4bc2 b33d e4d6 28be 23c0 f53c 9d83 7c3d
00000230: b189 bfbd abc5 c5bd 00c5 953c 0c2f 053e
00000240: a3ac 883d 59ed 033d 64e0 19bc 7f16 863d
00000250: e409 2cbd 16fc 973d 4231 613e 8004 a6bd
00000260: 48de 16bc 0ebf d6bc 8371 233e ef6b b3bd
00000270: 3994 25bd a4e8 ea3c d639 4c3d 3747 713e
00000280: b9b7 373e 0bb7 4a3c 0f86 6e3d 3611 27bd
00000290: 6153 2cbd db8b 863d a478 e63d 459f fc3b
000002a0: 4fc3 8f3d ae58 453e 720f 633d bf57 a53d
000002b0: eb9d e13c 2adf 003e bb0e e83c 7a35 a93d
000002c0: 19b6 c6bd 2008 b53d 88e6 febd e141 8bbd
000002d0: f509 543e fd1d 093e d95e d9bb 0a00 32bc
000002e0: 50a5 713e 8096 f33c 717c 243d af95 963d
000002f0: 77d9 fd3d 9e46 213c 58f8 d3bc 3fb5 cfbd
00000300: c66c f2bc e7e4 8e3d c27f 663d d2f7 5f3d
00000310: 940b d5bc 18f9 2e3c 62fc c1bd 4f21 ad3d
00000320: 7cf8 f4bd 9a36 623d 5bdd 44bb 9abf 7e3d
00000330: e341 96bd 023e b23c 65e0 6b3d 59e2 d5bd
00000340: 3a66 6a3e b96e 2e3e 528d 3fbd 524f a73d
00000350: 2190 833d 49f9 723c 468b 8ebd b41e 653e
00000360: 8047 3abd 2b1f ad3b 8cdb eabc 7b48 2dbd
00000370: d652 adbc 5537 0a3c b8ca 533d 1b5c 293d
00000380: dca1 7e3d dded d43d 6fc2 763c ad67 e9bc
00000390: 5de9 8ebd 7431 c0bd 7d39 3a3d be4c a5bd
000003a0: ad99 b73c 8dab f83d 6773 c8bd 741d 49bd
000003b0: 34f2 0c3e 99f5 cfbd 3095 843b ec50 e0bd
000003c0: 3723 27be d03d e4bc c123 9dbc 2979 b0bd
000003d0: 9728 8abc f48c b0bd ffba cabd 67bc 413e
000003e0: e610 603d c749 5f3e a596 3d3d 5016 f53c
000003f0: 0fb7 b83d ac19 f83d a7f6 5fbd 02bf a6bc

sequential_1/lstm_1_2/while/lstm_cell_1/add_1/ReadVariableOp f4 [128]
0.044155665 0.04418509 0.037758205 0.04017115 0.023120347 0.03574894 0.035275716 0.03193911
0.03736936 0.03879029 0.041891567 0.039797526 0.041490797 0.028132679 0.043291897 0.04133297
0.05138489 0.008346712 0.0149740735 0.046790924 0.03775162 0.045622468 0.045170303 0.043390233
0.010199473 0.038185157 0.040041156 0.042131867 0.034270182 0.04361215 0.011580421 0.04335391
1.0418873 1.032597 1.0232049 1.0332763 0.9960127 1.0137624 1.0307031 1.0279069
1.0383847 1.0322744 1.0407197 1.0370897 1.0426915 1.0248799 1.0487096 1.0328338
1.0441165 0.98808813 1.0193967 1.0414143 1.0322102 1.0407847 1.0435185 1.044828
0.9931259 1.0300033 1.034909 1.0403168 1.0278109 1.0355693 1.0157225 1.0371057
0.033033326 0.022485917 0.007690142 0.020393744 0.010849339 0.011049486 0.007893577 -0.017608764
0.025836926 0.02728732 -0.016652415 0.01629157 0.033467997 -0.029294213 0.02362894 0.0040839724
0.012914664 1.2284593e-05 0.02437507 -0.02398413 -0.005744975 0.032771755 -0.027317561 0.031130379
0.02344681 -0.009361394 -0.013909448 0.008698112 -0.024045479 -0.017266044 -0.02024727 0.006985925
0.0554364 0.05675231 0.048900094 0.045264963 0.03206202 0.044540703 0.049440682 0.046436477
0.049012423 0.062701896 0.07123922 0.055443555 0.053314075 0.043546576 0.07240917 0.05287583
0.072491854 0.024432264 0.027710376 0.060764607 0.054949418 0.05845981 0.0599403 0.06263657
0.015087364 0.053815506 0.055908106 0.055287212 0.053788796 0.057102367 0.02868942 0.059519198
00000000: 92dc 343d 6dfb 343d 59a8 1a3d 818a 243d
00000010: e266 bd3c 7b6d 123d 457d 103d 96d2 023d
00000020: 9d10 193d 91e2 1e3d 7e96 2b3d bb02 233d
00000030: 41f2 293d 8176 e63c d852 313d c34c 293d
00000040: f678 523d a6c0 083c d155 753c d7a7 3f3d
00000050: 71a1 1a3d a0de 3a3d 7f04 393d f5b9 313d
00000060: b11b 273c 0a68 1c3d 3202 243d 7792 2c3d
00000070: e45e 0c3d a7a2 323d cebb 3d3c df93 313d
00000080: 905c 853f 232c 843f 61f8 823f 6642 843f
00000090: b0fa 7e3f f7c2 813f 14ee 833f 7492 833f
000000a0: cae9 843f 9121 843f 4e36 853f 5bbf 843f
000000b0: ea76 853f 442f 833f 1e3c 863f e633 843f
000000c0: 9ca5 853f 58f3 7c3f 977b 823f 104d 853f
000000d0: 771f 843f 6f38 853f 0492 853f edbc 853f
000000e0: 803d 7e3f 26d7 833f e677 843f 1a29 853f
000000f0: 4f8f 833f 898d 843f 3203 823f e1bf 843f
00000100: f44d 073d 6334 b83c 96fd fb3b c810 a73c
00000110: 6dc1 313c e708 353c 1054 013c 4140 90bc
00000120: f6a7 d33c a889 df3c a56a 88bc e675 853c
00000130: bd15 093d 6bfa efbc 7b91 c13c d8d2 853b
00000140: 0798 533c ed19 4e37 3aae c73c 5e7a c4bc
00000150: 5840 bcbb ad3b 063d 14c9 dfbc 2305 ff3c
00000160: 8613 c03c 8860 19bc 74e4 63bc 8782 0e3c
00000170: 06fb c4bc 8571 8dbc 9add a5bc 30ea e43b
00000180: 4711 633d 1c75 683d 774b 483d c167 393d
00000190: 7753 033d 5070 363d 5082 4a3d 2d34 3e3d
000001a0: 40c1 483d da69 803d dee5 913d c818 633d
000001b0: dc5f 5a3d e55d 323d 424b 943d 5494 583d
000001c0: 9c76 943d 2c26 c83c df00 e33c 4fe4 783d
000001d0: a412 613d 8e73 6f3d f683 753d 9a47 803d
000001e0: fe30 773c a66d 5c3d e6ff 643d d874 623d
000001f0: a451 5c3d 2ce4 693d 1306 eb3c 67ca 733d
