weight/model.onnx (onnx, 146611 bytes, 10 tensors)

sequential_1/lstm_1_2/zeros:0 f4 [1, 32]
0	0x00000000	0.0
1	0x00000000	0.0
2	0x00000000	0.0
3	0x00000000	0.0
4	0x00000000	0.0
5	0x00000000	0.0
6	0x00000000	0.0
7	0x00000000	0.0
8	0x00000000	0.0
9	0x00000000	0.0
10	0x00000000	0.0
11	0x00000000	0.0
12	0x00000000	0.0
13	0x00000000	0.0
14	0x00000000	0.0
15	0x00000000	0.0
16	0x00000000	0.0
17	0x00000000	0.0
18	0x00000000	0.0
19	0x00000000	0.0
20	0x00000000	0.0
21	0x00000000	0.0
22	0x00000000	0.0
23	0x00000000	0.0
24	0x00000000	0.0
25	0x00000000	0.0
26	0x00000000	0.0
27	0x00000000	0.0
28	0x00000000	0.0
29	0x00000000	0.0
30	0x00000000	0.0
31	0x00000000	0.0

sequential_1/lstm_1_2/lstm_cell_1/add_1/ReadVariableOp/resource:0 f4 [128]
0	0x3d60ec19	0.05491266
1	0x3d43e4f4	0.04782577
2	0x3d79f595	0.06102522
3	0x3d1ea76f	0.038733896
4	0x3d2ec11e	0.04266464
5	0x3d5f9afa	0.054591157
6	0x3d42bd64	0.0475439
7	0x3d125e6f	0.03573459
8	0x3cd3f079	0.025871502
9	0x3d66a3ee	0.05630868
10	0x3d11b2cf	0.035570916
11	0x3d90f1e3	0.07077386
12	0x3d92ec61	0.07173992
13	0x3d30c09a	0.04315243
14	0x3d62edbd	0.055402506
15	0x3d144915	0.03620251
16	0x3d387b26	0.04503932
17	0x3d6b9a3a	0.05752013
18	0x3d80ba89	0.06285579
19	0x3d0d5435	0.034504134
20	0x3ca780bc	0.020447128
21	0x3d74fb20	0.059809804
22	0x3d41fa6f	0.047357973
23	0x3cf73e31	0.030181022
24	0x3ce57ef0	0.02801463
25	0x3ce5f2e0	0.028069913
26	0x3d0a8b8c	0.03382449
27	0x3d46ecf7	0.04856583
28	0x3d0c0f11	0.034194056
29	0x3d2a6bdc	0.04160677
30	0x3d150799	0.0363842
31	0x3d8044c3	0.06263115
32	0x3f86b1fc	1.0523067
33	0x3f85c93f	1.045204
34	0x3f874e5f	1.0570792
35	0x3f833ed8	1.0253553
36	0x3f83d18b	1.0298322
37	0x3f84dc6b	1.0379766
38	0x3f835fbf	1.0263594
39	0x3f84d581	1.0377656
40	0x3f827c4c	1.0194182
41	0x3f86d1af	1.053274
42	0x3f815c52	1.0106299
43	0x3f86e0f6	1.0537403
44	0x3f8859d9	1.0652419
45	0x3f84af68	1.036603
46	0x3f8791b9	1.0591346
47	0x3f827f5d	1.0195118
48	0x3f844f5f	1.0336722
49	0x3f87ea23	1.0618328
50	0x3f848fa1	1.0356332
51	0x3f85cfeb	1.0454077
52	0x3f8215f3	1.0162948
53	0x3f873682	1.056351
54	0x3f84359c	1.032886
55	0x3f80f653	1.0075172
56	0x3f836adf	1.026699
57	0x3f82a590	1.0206776
58	0x3f82a1fc	1.0205684
59	0x3f844a75	1.0335222
60	0x3f84905b	1.0356554
61	0x3f83a4a1	1.0284616
62	0x3f8479c1	1.0349656
63	0x3f85f70f	1.0466021
64	0xbd16bc81	-0.036800865
65	0x3c8af47b	0.01696228
66	0x3d3dd8b0	0.046349227
67	0xbcc4347f	-0.023950813
68	0x3d2ffb3d	0.04296421
69	0x3c496be7	0.012293792
70	0x3c66927f	0.014073013
71	0x3cf72d40	0.030172944
72	0xbcb5d505	-0.022196302
73	0xbcaa20ba	-0.020767558
74	0x3d1d490e	0.03839975
75	0x3d1fc60c	0.03900723
76	0xbca803d5	-0.02050964
77	0xbd078474	-0.0330853
78	0xbd2b4b11	-0.041819636
79	0x3d21d3d8	0.03950867
80	0x3cab3fe8	0.020904496
81	0xbd2bdd22	-0.041958936
82	0xbb896f42	-0.004194171
83	0x3d16afec	0.036788866
84	0x3b8ff53d	0.0043932484
85	0xbd1cf0ec	-0.0383157
86	0x3d2be568	0.041966826
87	0xbc257b57	-0.010100207
88	0x3c094164	0.008377407
89	0xbb32b906	-0.0027270927
90	0xbcb0bdf1	-0.021574946
91	0x3c431b84	0.011908416
92	0x3c9b0f1e	0.018928107
93	0xbc5d1cee	-0.013495667
94	0x3cbadf8b	0.022811672
95	0xbd1c0ef0	-0.038100183
96	0x3dacff8d	0.0844718
97	0x3db6cdb9	0.08925957
98	0x3dc9430b	0.098272406
99	0x3d6f1b74	0.05837579
100	0x3d91c745	0.07118086
101	0x3db19c20	0.086723566
102	0x3da2e849	0.07954461
103	0x3d4ee90d	0.050515223
104	0x3d485534	0.04890938
105	0x3dac126d	0.08401952
106	0x3dbeaa70	0.09309852
107	0x3dc6375e	0.09678529
108	0x3dd211b0	0.1025728
109	0x3d90c836	0.07069437
110	0x3db5049f	0.08838772
111	0x3da5a03e	0.080872044
112	0x3da9fa08	0.08299643
113	0x3daf0c46	0.08547263
114	0x3df7f3c6	0.12107043
115	0x3d897835	0.06712381
116	0x3d39f0c1	0.045395616
117	0x3dbb19c5	0.091357745
118	0x3d903139	0.070406385
119	0x3d5eb647	0.054373052
120	0x3d73cb08	0.059519798
121	0x3d599297	0.053118315
122	0x3d8d1673	0.068890475
123	0x3db81944	0.08989194
124	0x3d99157a	0.074747995
125	0x3da8b1fc	0.08237073
126	0x3d787cb6	0.06066581
127	0x3dcf45cf	0.10120737

sequential_1/lstm_1_2/lstm_cell_1/Cast_1/ReadVariableOp/resource:0 f4 [32, 128]
0	0x3d45f261	0.048326854
1	0xbcfaa3dc	-0.030595712
2	0x3ce03c36	0.02737246
3	0x3da40b52	0.08009972
4	0xbc85f7bc	-0.01635348
5	0xbd88cca8	-0.0667966
6	0xbdcd9c9e	-0.10039638
7	0x3e3c1a70	0.1836946
8	0xbe74c195	-0.2390197
9	0x3c3903ec	0.011292439
10	0xbd20a5e9	-0.039220724
11	0xbd63af55	-0.05558713
12	0xbcd808e5	-0.026371429
13	0x3d93bb9f	0.0721352
14	0x3c407170	0.011745796
15	0xbba811ff	-0.0051290984
16	0xbcc461f5	-0.02397249
17	0x3cce322e	0.025170412
18	0x3e515ee7	0.20446359
19	0xbd401e1b	-0.04690371
20	0x3e0f1768	0.13973773
21	0xbc80f8a9	-0.01574357
22	0xbe1d5b96	-0.15366969
23	0x3bfbe5d5	0.00768731
24	0x3da047ea	0.078262165
25	0x3d95e7b7	0.07319587
26	0x3dae7eb5	0.08520261
27	0x3e5a6044	0.21325785
28	0x3d21d1b3	0.039506625
29	0x3dce63bd	0.10077617
30	0xbdd12e9f	-0.102139704
31	0x3c838b05	0.0160575
32	0x3e26c7b5	0.1628712
33	0x3e0d5ccb	0.13804929
34	0xbd9b8baf	-0.07595002
35	0x3e03bbe7	0.12864648
36	0xbcca4eb3	-0.02469573
37	0xbd5e3151	-0.05424625
38	0xbcaca4c1	-0.021074655
39	0xbdaee6c9	-0.085401125
40	0xbd610edd	-0.054945815
41	0x3d438620	0.047735333
42	0xbb297a90	-0.0025860406
43	0x3cceabcc	0.025228404
44	0x3e0bf7b7	0.13668714
45	0x3d944baa	0.07240994
46	0xbd7e6c10	-0.062114775
47	0x3d919cc8	0.07109982
48	0xbe09e151	-0.13464858
49	0x3da80e40	0.08205843
50	0x3d3bbcc5	0.04583432
51	0x3d4d5e15	0.05013855
52	0xbda9f7f4	-0.082992464
53	0xbdfb9b76	-0.12285511
54	0xbd5ff531	-0.054677192
55	0x3dfb3c6b	0.12267383
56	0xbd289a3b	-0.04116271
57	0x3d15b037	0.036545005
58	0xbcb9a87d	-0.02266335
59	0xbd29be02	-0.04144097
60	0xbe64b462	-0.22334436
61	0xbd1e075f	-0.03858125
62	0xbe4a24e8	-0.19740641
63	0xbe1c80fe	-0.15283582
64	0x3e0b8014	0.13623077
65	0xbcdb68fc	-0.026783459
66	0xbdde9098	-0.10867423
67	0x3ccbfcf4	0.02490089
68	0xbc61c41a	-0.013779664
69	0xbd9ee1d3	-0.07757916
70	0x3d8ea1a5	0.06964425
71	0xbe3d6d77	-0.18498789
72	0xbd6510cc	-0.055924222
73	0x3d608b5c	0.054820403
74	0xbd37b8b4	-0.04485388
75	0xbc0ac1bd	-0.008469042
76	0x3d879c3c	0.06621596
77	0x3dc77ef8	0.09741014
78	0x3d79ffff	0.061035153
79	0x3b0364e5	0.0020049151
80	0xbd95475c	-0.07289001
81	0x3df14d24	0.117822915
82	0x3dbce6f7	0.092237405
83	0xbdd01d7a	-0.10161872
84	0x3caa131c	0.020761065
85	0x3c68ede3	0.014216873
86	0xbc9ec262	-0.019379798
87	0x3dbdf90c	0.092760175
88	0xbd835a47	-0.064137034
89	0xbdc3f183	-0.09567549
90	0xbe2964c0	-0.1654234
91	0x3ce3e51a	0.027819205
92	0xbdea259c	-0.11432955
93	0x3b73707d	0.0037145906
94	0xbd83beec	-0.064329
95	0xbd89ebac	-0.06734404
96	0x3d1af99c	0.037835702
97	0xbcf64e7e	-0.030066725
98	0xbdb5e7df	-0.088821165
99	0x3e0fd5de	0.14046428
100	0xbca016fb	-0.019542208
101	0xbe012b65	-0.1261421
102	0xbdefbade	-0.11705564
103	0x3dc23074	0.09481898
104	0xbda6fa22	-0.08153178
105	0x3d4ffac9	0.050776277
106	0x3ded4fc5	0.115874805
107	0xbe00c8ad	-0.12576552
108	0x3e1787bb	0.14797871
109	0x3dfcbd9d	0.12340853
110	0xbe30379c	-0.17208713
111	0xbe8153c5	-0.25259224
112	0xbe431f75	-0.19054969
113	0x3dc830de	0.09774946
114	0x3d49d334	0.049273685
115	0x3e119b53	0.14219408
116	0x3ea56f5c	0.32311523
117	0x3e035d24	0.12828499
118	0xbe0243e3	-0.12721209
119	0xbdf2238e	-0.11823188
120	0x3daf6503	0.08564188
121	0x3e3a5e8e	0.18200132
122	0xbdda9ce9	-0.106744595
123	0x3d27d26d	0.040972162
124	0x3c4db771	0.012555943
125	0x3b259cf6	0.0025270558
126	0x3e0b776a	0.13619772
127	0xbde7cd37	-0.113184385
128	0xbcd4ab62	-0.025960628
129	0x3d0000b3	0.031250667
130	0x3c002ac1	0.007822693
131	0xbe007dfc	-0.12548059
132	0x3b1da434	0.0024054172
133	0x3e1fad69	0.15593494
134	0x3cb229e5	0.021748492
135	0xbd7aec77	-0.061260667
136	0x3da28047	0.07934623
137	0x3e7accef	0.24492238
138	0xbcf2f65a	-0.029658485
139	0xbbe15287	-0.006876293
140	0xbdafd652	-0.085858
141	0x3c5c0259	0.013428294
142	0xbce3f95c	-0.027828865
143	0xbada02bb	-0.0016632894
144	0x3db6dcaa	0.08928807
145	0xba00615f	-0.0004897322
146	0x3dddb99c	0.10826418
147	0xbd7cd3ed	-0.061725546
148	0xbda21399	-0.07913894
149	0x3d37de48	0.04488972
150	0x3ce7ecf4	0.02831123
151	0x3c2157b1	0.009847567
152	0x3cb3ee1f	0.02196413
153	0x3dacf474	0.08445063
154	0xbdde7c1e	-0.10863517
155	0x3d2fb310	0.042895377
156	0xbd3148f6	-0.04328247
157	0x3d9920a9	0.074769326
158	0x3d7af6f0	0.061270654
159	0xbd8ad17b	-0.067782365
160	0x3d114d8d	0.03547435
161	0xbe4a315b	-0.1974539
162	0x3b0e0bae	0.0021674442
163	0x3ddeaa73	0.10872354
164	0xbd5c86b1	-0.05383939
165	0xbcdf07ab	-0.027225336
166	0x3db00764	0.0859516
167	0xbc7a4c04	-0.015276913
168	0xbd97f290	-0.07419312
169	0xbe0a0794	-0.13479453
170	0xbb58d822	-0.003308781
171	0xbc35ca67	-0.01109562
172	0x3d37b458	0.044849724
173	0xbd5c09d7	-0.05372032
174	0x3dadeaad	0.084920265
175	0x3c24f88b	0.010069023
176	0x3c85ed84	0.016348608
177	0x3d4bf240	0.049791574
178	0x3dc4c26d	0.09607396
179	0xbd0c2f6e	-0.03422492
180	0xbe504e31	-0.20342328
181	0xbd36f59a	-0.044667818
182	0xbdd61ec1	-0.104550846
183	0x3c339776	0.010961404
184	0xbde5005f	-0.111817114
185	0x3e251454	0.16121036
186	0xbd103e30	-0.035215557
187	0x3bf18b8c	0.0073713716
188	0xbd49d863	-0.049278628
189	0xbc882e1e	-0.016623553
190	0xbdc7e9bf	-0.097613804
191	0xbd06b2aa	-0.03288523
192	0x3dbbcac0	0.09169531
193	0x3d3a6064	0.04550208
194	0x3cc6dfd6	0.024276655
195	0xbc57ce37	-0.013171724
196	0xbc802680	-0.015643358
197	0x3e626d7b	0.22112076
198	0xbd48a1c0	-0.04898238
199	0x3cc289a5	0.023747275
200	0xbd15a32e	-0.036532573
201	0x3e8381a1	0.25684837
202	0xbc4ad475	-0.012379755
203	0xbd2ce09d	-0.042206395
204	0x3d8b5e7b	0.0680513
205	0xbccac393	-0.02475146
206	0xbcaa4031	-0.020782562
207	0x3e01f20d	0.12689991
208	0xbd912b73	-0.070883654
209	0xbcf3c093	-0.029754912
210	0xbc0b55a4	-0.008504305
211	0x3d619ddf	0.0550822
212	0x3d2299e1	0.03969753
213	0x3e1dfd99	0.15428771
214	0x3cbcd940	0.023052812
215	0x3c844916	0.016148131
216	0xbd1a6c4a	-0.03770093
217	0xbda7950e	-0.08182727
218	0x3d143cde	0.03619086
219	0x3dfd5862	0.12370373
220	0x3d9f47cb	0.07777365
221	0xbb44d63b	-0.0030034918
222	0xbdd3f1e5	-0.10348872
223	0x3d7de1f9	0.061983082
224	0xbe194d59	-0.14970912
225	0xbdebf88e	-0.115220174
226	0x3cccd23d	0.025002593
227	0xbd0ac23c	-0.033876643
228	0x3e48af7b	0.1959819
229	0x3d9135c7	0.07090335
230	0x3d815d71	0.06316651
231	0xbddd39cf	-0.10802042
232	0xbce06112	-0.027390037
233	0xbd549413	-0.051899027
234	0xbd09c06e	-0.03363078
235	0x3e938820	0.28814793
236	0x3d0fa349	0.03506783
237	0xbe1ab2dc	-0.15107292
238	0xbc89acab	-0.016805967
239	0x3da4b653	0.08042588
240	0xbd5a8814	-0.05335243
241	0xbd839607	-0.064251
242	0x3e2e74fd	0.17036815
243	0xbe128256	-0.14307532
244	0xbd888848	-0.066666186
245	0xbd5f06cc	-0.05444984
246	0xbe5e333d	-0.21699233
247	0xbd5a9358	-0.053363174
248	0x3d369361	0.044574145
249	0xbe6f2be4	-0.23356587
250	0x3e0edcd6	0.1395143
251	0xbdb91c59	-0.0903861
252	0xbde4dbf2	-0.11174764
253	0x3d27ef93	0.04099996
254	0xbe609551	-0.2193196
255	0xbd26debe	-0.040739767

sequential_1/lstm_1_2/lstm_cell_1/Cast/ReadVariableOp/resource:0 f4 [64, 128]
0	0x3e59a60d	0.2125475
1	0xbdbed31d	-0.093176104
2	0x3e04ceed	0.12969561
3	0xbe2c9838	-0.16854942
4	0x3dcbf0c4	0.09958032
5	0xbe2775ae	-0.16353485
6	0xbe069a42	-0.13144782
7	0xbe56c8df	-0.20975064
8	0x3d9c48b8	0.076310575
9	0xbe39f87d	-0.18161197
10	0x3e08c2df	0.13355587
11	0x3d72d512	0.05928523
12	0xbd9ae7f1	-0.075637706
13	0x3d99f0eb	0.075166546
14	0x3c9a8767	0.018863393
15	0xbdbff9f4	-0.09373847
16	0x3d021aa1	0.031763677
17	0xbe0622af	-0.13099168
18	0xbdacd3b7	-0.08438819
19	0x3d8b63a3	0.068061136
20	0xbdad6abe	-0.08467625
21	0x3d13a1e8	0.036043078
22	0x3d6d8559	0.0579885
23	0xbe242fee	-0.16033909
24	0xbdfee1fb	-0.12445446
25	0xbd692dd1	-0.05692846
26	0xbd2bbefb	-0.04193018
27	0xbca747b7	-0.020419938
28	0x3c55e465	0.013054942
29	0x3e113c7d	0.1418323
30	0xbd49411b	-0.049134355
31	0x3cf18257	0.029481096
32	0x3d338096	0.0438238
33	0x3cd6b3f7	0.02620886
34	0x3e3b1984	0.18271452
35	0xbc8e3c96	-0.017362874
36	0x3df9307c	0.12167451
37	0x3d647481	0.05577517
38	0xbe3c24a6	-0.18373355
39	0x3de0ec15	0.10982529
40	0xbe2236b8	-0.15841186
41	0xbd4130f7	-0.047165837
42	0xbd06b277	-0.03288504
43	0x3dbb1581	0.09134961
44	0xbe1ca347	-0.1529666
45	0x3e3e8fe7	0.18609582
46	0x3d928a8b	0.07155331
47	0xbe3c52fc	-0.18391031
48	0xbdb4b45d	-0.08823464
49	0x3de34980	0.110980034
50	0xbda9bbea	-0.08287795
51	0x3e04ae59	0.12957133
52	0xbaebd0c4	-0.0017991294
53	0x3d08aa45	0.033365507
54	0xbdf068b4	-0.117387205
55	0xbda82336	-0.08209841
56	0xbda04c06	-0.07827
57	0xbe235a0d	-0.1595232
58	0xbe18e808	-0.14932263
59	0x3bdfaa85	0.0068257474
60	0xbd8bcd83	-0.068263076
61	0xbb9a862b	-0.004715701
62	0xbe26ed84	-0.16301543
63	0x3bc01ebc	0.005863039
64	0x3d8daf7c	0.069182366
65	0x3d75343b	0.059864264
66	0xbda56d82	-0.080775276
67	0x3d15462d	0.036443878
68	0x3e41810e	0.18896887
69	0x3d4a5ce2	0.049404986
70	0xbde44d8d	-0.11147604
71	0xbe17e48d	-0.14833279
72	0x3b8bc91a	0.0042659165
73	0x3c41f3f0	0.011837944
74	0x3c7c9468	0.015416242
75	0x3dd9b931	0.106310256
76	0xbe387bd8	-0.18015993
77	0xbe484724	-0.19558388
78	0xbde8fd2a	-0.11376412
79	0xbdec68d0	-0.11543429
80	0x3cd0cc75	0.025488118
81	0x3db47808	0.08811957
82	0xbe3d9eeb	-0.18517654
83	0xbe420549	-0.18947329
84	0x3ac1f939	0.0014799006
85	0x3d070c57	0.032970753
86	0x3d484dcb	0.048902314
87	0x3daa7178	0.08322424
88	0xbe04b0a9	-0.12958016
89	0x3e412288	0.18860829
90	0x3da733cb	0.081641756
91	0xbdc8616a	-0.09784205
92	0xbdd9632e	-0.1061462
93	0x3ceb616e	0.028732982
94	0xbe0f490a	-0.13992706
95	0xbd29846e	-0.04138606
96	0x3e0059b4	0.12534219
97	0x3b91010f	0.004425175
98	0xbdaad71b	-0.08341809
99	0xbe05c26f	-0.13062452
100	0x3dc0ba3d	0.09410522
101	0xbdcb19c9	-0.099170275
102	0xbe36ee45	-0.1786433
103	0x3d767b5e	0.060176246
104	0xbe0a9395	-0.1353286
105	0xbe45db2f	-0.19321893
106	0x3e1bb4aa	0.15205637
107	0xbe0d3f7a	-0.13793746
108	0xbe139c0a	-0.14414993
109	0x3c6028c4	0.013681594
110	0x3e0b6d84	0.13615996
111	0xbb99c3ca	-0.0046925293
112	0xbe208790	-0.15676713
113	0xbe06cdbc	-0.13164419
114	0xbe18432e	-0.14869377
115	0x3c1b91de	0.009495227
116	0xbcdcd292	-0.026955876
117	0x3d290432	0.041263767
118	0xbb145c41	-0.0022637995
119	0xbdc7afcf	-0.0975033
120	0x3bf8ed1a	0.007596624
121	0xbdfde98c	-0.12398061
122	0xbe0b248d	-0.13588162
123	0x3cda25f4	0.026629426
124	0xbdedfcca	-0.11620481
125	0xbe4f74c1	-0.20259382
126	0xbdfe791f	-0.12425446
127	0x3e042f31	0.12908627
128	0xbd264d50	-0.040601075
129	0x3d55b9f1	0.05217928
130	0xbdcb8def	-0.09939181
131	0x3e2ed0ed	0.17071886
132	0xbda49517	-0.08036249
133	0x3d260a08	0.04053691
134	0xbe418652	-0.18898895
135	0xbd050dc8	-0.032483846
136	0xbd36368a	-0.044485606
137	0xbca8b7ea	-0.02059551
138	0xbc94e79c	-0.018176846
139	0xbdf4746d	-0.11936269
140	0x3dd5dd54	0.104426056
141	0xbd655dbc	-0.055997595
142	0x3c4c2baf	0.012461587
143	0x3e392b5c	0.18082947
144	0xbe0f6ba9	-0.14005913
145	0xbcd9b832	-0.026577089
146	0xbd32b3cf	-0.04362851
147	0x3e11214e	0.14172861
148	0x3dedd779	0.11613364
149	0x3e25b47a	0.16182128
150	0xbdc6120b	-0.0967141
151	0xbe0f7002	-0.14007571
152	0x3e419c37	0.18907247
153	0x3e320298	0.17383802
154	0xbdad5e4c	-0.08465251
155	0xbd850abc	-0.06496188
156	0xbd3c4c96	-0.045971476
157	0xbd33b8bf	-0.04387736
158	0x3e39d163	0.18146281
159	0xbe490f87	-0.1963483
160	0xbda10c29	-0.078636475
161	0xbc2e063a	-0.010621602
162	0x3e4dbaf6	0.20090851
163	0x3d73001c	0.059326276
164	0xbda3e057	-0.08001774
165	0x3dbab95b	0.09117385
166	0x3b66d9a3	0.0035224936
167	0xbe16a9e5	-0.14713247
168	0x3c68e519	0.014214777
169	0x3de29708	0.11063963
170	0xbe4569c8	-0.19278634
171	0x3db65e80	0.08904743
172	0x3d507504	0.050892845
173	0xbd6f699a	-0.05845032
174	0x3d90803c	0.07055709
175	0x3da630c0	0.08114767
176	0xbd81d231	-0.06338919
177	0x3e0c62a5	0.13709505
178	0xbda33753	-0.07969537
179	0xbcd1b221	-0.025597634
180	0xbdb08c21	-0.086204775
181	0x3d18bbb0	0.037288368
182	0xbd3d7918	-0.046258062
183	0x3e0f60e2	0.14001802
184	0x3d0e8580	0.034795284
185	0xbb97d18c	-0.004633134
186	0xbcaa78e5	-0.0208096
187	0xbc8637a0	-0.016383946
188	0x3e2b20a4	0.1671167
189	0xbd631ae2	-0.05544556
190	0xbdcb9713	-0.099409245
191	0xbd788523	-0.060673844
192	0x3d7cb786	0.06169846
193	0xbd06794c	-0.03283052
194	0x3da504f3	0.080575846
195	0x3c67a7b6	0.0141391065
196	0xbd05d05d	-0.032669414
197	0xbe416d64	-0.18889385
198	0xbe123c06	-0.1428071
199	0xbe116b8c	-0.14201182
200	0x3e0e80c8	0.13916314
201	0x3e213f48	0.15746796
202	0xbd1a473a	-0.037665583
203	0xbd0b781b	-0.03405009
204	0x3deda9c4	0.11604646
205	0xbe2ed18c	-0.17072123
206	0x3e13a911	0.14419962
207	0x3d72c110	0.05926615
208	0xbe27ae76	-0.16375145
209	0x3c8dad16	0.017294448
210	0xbda7ec77	-0.08199399
211	0x3c0f02ed	0.008728725
212	0xbdcccec5	-0.10000376
213	0xbd6e4b7a	-0.05817745
214	0xbe0cf42a	-0.13765016
215	0x3bed888d	0.007248944
216	0xbd4d8a81	-0.050180916
217	0x3e11e8d0	0.14248967
218	0xbe25f0dd	-0.16205163
219	0xbe0d564c	-0.13802451
220	0xbdcc3abe	-0.09972142
221	0x3d881264	0.06644133
222	0x3e0761e8	0.13220942
223	0xbd655f43	-0.05599905
224	0x3c975136	0.018471342
225	0xbe3a9d8f	-0.18224166
226	0x3def73b6	0.11691992
227	0x3dff1355	0.12454859
228	0xbd63ee85	-0.05564739
229	0x3de23c2b	0.110466324
230	0x3e348f85	0.17632873
231	0xbcabc0fb	-0.020966044
232	0xbd35738e	-0.044299655
233	0xbc8b4bc0	-0.017003894
234	0xbdfd7ee3	-0.12377717
235	0xbd0cab8f	-0.0343433
236	0xbdc29132	-0.0950035
237	0x3dd47e88	0.103756964
238	0xbe15dfb6	-0.1463612
239	0xbde2f8dd	-0.11082623
240	0xbd905742	-0.07047893
241	0xbca7181c	-0.020397238
242	0xbd5bfba2	-0.053706773
243	0x3da96131	0.08270491
244	0x3e589a11	0.21152522
245	0xbc827fe1	-0.015930118
246	0xbe23fd58	-0.16014612
247	0xbd27dfa1	-0.040984754
248	0x3e715471	0.23567368
249	0xbd0c8e03	-0.03431512
250	0x3d6fc7bc	0.05854009
251	0x3e4aba73	0.19797687
252	0x3d9f545f	0.077797644
253	0x3dd6a6e2	0.10481049
254	0x3e42369f	0.18966149
255	0xbe31ad94	-0.17351371

sequential_1/lstm_1/zeros_1:0 f4 [1, 64]
0	0x00000000	0.0
1	0x00000000	0.0
2	0x00000000	0.0
3	0x00000000	0.0
4	0x00000000	0.0
5	0x00000000	0.0
6	0x00000000	0.0
7	0x00000000	0.0
8	0x00000000	0.0
9	0x00000000	0.0
10	0x00000000	0.0
11	0x00000000	0.0
12	0x00000000	0.0
13	0x00000000	0.0
14	0x00000000	0.0
15	0x00000000	0.0
16	0x00000000	0.0
17	0x00000000	0.0
18	0x00000000	0.0
19	0x00000000	0.0
20	0x00000000	0.0
21	0x00000000	0.0
22	0x00000000	0.0
23	0x00000000	0.0
24	0x00000000	0.0
25	0x00000000	0.0
26	0x00000000	0.0
27	0x00000000	0.0
28	0x00000000	0.0
29	0x00000000	0.0
30	0x00000000	0.0
31	0x00000000	0.0
32	0x00000000	0.0
33	0x00000000	0.0
34	0x00000000	0.0
35	0x00000000	0.0
36	0x00000000	0.0
37	0x00000000	0.0
38	0x00000000	0.0
39	0x00000000	0.0
40	0x00000000	0.0
41	0x00000000	0.0
42	0x00000000	0.0
43	0x00000000	0.0
44	0x00000000	0.0
45	0x00000000	0.0
46	0x00000000	0.0
47	0x00000000	0.0
48	0x00000000	0.0
49	0x00000000	0.0
50	0x00000000	0.0
51	0x00000000	0.0
52	0x00000000	0.0
53	0x00000000	0.0
54	0x00000000	0.0
55	0x00000000	0.0
56	0x00000000	0.0
57	0x00000000	0.0
58	0x00000000	0.0
59	0x00000000	0.0
60	0x00000000	0.0
61	0x00000000	0.0
62	0x00000000	0.0
63	0x00000000	0.0

sequential_1/lstm_1/lstm_cell_1/add_1/ReadVariableOp/resource:0 f4 [256]
0	0x3cb5aec8	0.022178069
1	0x3d6238f3	0.055230092
2	0x3d40ed91	0.04710156
3	0x3d18e03b	0.037323218
4	0x3cb819ce	0.022473242
5	0x3cad15e1	0.021128597
6	0x3c0fea96	0.008783957
7	0x3d63904c	0.055557534
8	0x3ce9b355	0.028527895
9	0x3d1583bf	0.036502596
10	0x3d18c244	0.03729464
11	0x3c511264	0.012760732
12	0x3d187b40	0.037226915
13	0x3d082f6e	0.033248357
14	0xbc907c88	-0.017637506
15	0x3d48b695	0.04900225
16	0x3d080095	0.03320368
17	0x3cf2906e	0.029609885
18	0x3d135712	0.03597171
19	0x3d870507	0.06592756
20	0x3cd45441	0.025919082
21	0x3c9e25f6	0.01930521
22	0x3b83b439	0.004019287
23	0x3bcf5811	0.006327637
24	0x3cf45f3a	0.029830564
25	0x3bfbb878	0.0076819025
26	0x3d4c09b1	0.04981393
27	0x3d24ca22	0.04023183
28	0x3d2b600d	0.041839648
29	0x3d3e461e	0.046453588
30	0x3d5cf39c	0.05394326
31	0x3c2b7616	0.010465166
32	0x3cbe23ce	0.023210432
33	0x3c97117a	0.01844095
34	0x3d525510	0.051350653
35	0x3d2bc97d	0.0419402
36	0x3d26e4a8	0.040745407
37	0x3d287cde	0.041134708
38	0x3ca3f524	0.020014353
39	0x3ced78fd	0.028988356
40	0x3cce5537	0.025187118
41	0x3d76f351	0.06029064
42	0x3d09b467	0.03361931
43	0x3cd7d807	0.026348127
44	0xbbc4b093	-0.0060024946
45	0x3d57f33a	0.052722193
46	0x3cd9b3a0	0.02657491
47	0xbc6e8801	-0.014558793
48	0x3d30def6	0.043181382
49	0x3d881e40	0.06646395
50	0x3d1956b9	0.03743622
51	0x3d53b2fb	0.05168436
52	0x3d85cda2	0.06533362
53	0x3cecc7de	0.028903898
54	0x3cafe5e1	0.02147192
55	0x3d078d17	0.033093538
56	0x3d30fa7d	0.043207634
57	0x3da02fa8	0.0782159
58	0x3d3adad2	0.04561884
59	0x3cb7f7c1	0.022457005
60	0x3d094b59	0.033519123
61	0x3d0b93f3	0.034076642
62	0x3d380dfb	0.044935208
63	0x3cbf90ef	0.02338454
64	0x3f80f56f	1.00749
65	0x3f88113c	1.063026
66	0x3f847261	1.0347406
67	0x3f84e9e1	1.0383874
68	0x3f8296c2	1.0202258
69	0x3f831004	1.0239263
70	0x3f7f68c4	0.99769235
71	0x3f878616	1.0587795
72	0x3f82bc53	1.0213722
73	0x3f82b3ce	1.0211122
74	0x3f83dee2	1.0302393
75	0x3f80a156	1.0049236
76	0x3f8263e5	1.0186735
77	0x3f830450	1.0235691
78	0x3f7b31e5	0.9812301
79	0x3f858320	1.0430641
80	0x3f81351c	1.0094333
81	0x3f82d5b3	1.0221466
82	0x3f822eff	1.0170592
83	0x3f86cd7e	1.0531461
84	0x3f826c30	1.0189266
85	0x3f8197c2	1.0124438
86	0x3f808298	1.0039854
87	0x3f80c5a8	1.006032
88	0x3f813de2	1.009701
89	0x3f7e4a99	0.99332577
90	0x3f846de9	1.0346042
91	0x3f884853	1.0647072
92	0x3f84419b	1.0332521
93	0x3f80dd55	1.0067545
94	0x3f84b50f	1.0367755
95	0x3f802cc3	1.001366
96	0x3f848361	1.0352594
97	0x3f81cb0e	1.0140092
98	0x3f842d29	1.0326282
99	0x3f8582df	1.0430564
100	0x3f847b64	1.0350156
101	0x3f839b68	1.0281801
102	0x3f81da0b	1.0144666
103	0x3f833714	1.0251184
104	0x3f83165f	1.0241202
105	0x3f86b37a	1.0523522
106	0x3f82c741	1.0217057
107	0x3f814c85	1.0101477
108	0x3f7dad7e	0.99092853
109	0x3f83a82c	1.0285697
110	0x3f82caba	1.0218117
111	0x3f7aba05	0.97940093
112	0x3f84f942	1.0388567
113	0x3f8601e6	1.0469329
114	0x3f8552a8	1.041585
115	0x3f8650b2	1.0493376
116	0x3f87fa38	1.0623236
117	0x3f82d90e	1.022249
118	0x3f817c76	1.0116107
119	0x3f83d1e9	1.0298434
120	0x3f862ba3	1.0482067
121	0x3f874864	1.0568967
122	0x3f82f66d	1.0231453
123	0x3f842476	1.0323627
124	0x3f8406ba	1.0314553
125	0x3f84b088	1.0366373
126	0x3f88b517	1.0680264
127	0x3f8230ce	1.0171144
128	0xbcccbf47	-0.024993552
129	0xb83a7b2c	-4.446057e-05
130	0x3b84db5f	0.0040544714
131	0xbc293561	-0.010327668
132	0x3c390e44	0.011294905
133	0xbcd92967	-0.026509
134	0x3be49bc2	0.0069765756
135	0xbd23b80e	-0.03997045
136	0xbcadbc1b	-0.02120786
137	0x3ca2eea1	0.019889178
138	0x3bdac9fe	0.0066769114
139	0x3cac7c14	0.021055259
140	0xbb838170	-0.004013233
141	0xbbd83ca1	-0.0065990244
142	0xbbed6b48	-0.007245455
143	0xbc9e087c	-0.019291155
144	0x3cb41699	0.021983432
145	0xbadc0ef3	-0.0016789123
146	0x3cb71d8c	0.022352956
147	0xbc4cbd35	-0.012496282
148	0xbcd7fee1	-0.026366653
149	0xbc971617	-0.01844315
150	0x3c989f1d	0.018630559
151	0xbd420525	-0.047368187
152	0x3c6ad437	0.0143328225
153	0x3d001671	0.0312714
154	0xbca55299	-0.020180987
155	0xbc88c09c	-0.016693406
156	0x3d04f948	0.032464296
157	0x3d1c0c56	0.038097702
158	0xbcae8d9f	-0.021307765
159	0x3cbad73c	0.02280771
160	0xbc2afb4d	-0.010435891
161	0xbd43f0a3	-0.04783691
162	0x3caa89bc	0.02081763
163	0x3d2dc8d9	0.04242787
164	0x3d100905	0.03516485
165	0xbd3a696a	-0.045510687
166	0x3c9141d1	0.017731579
167	0xbc11dd28	-0.008902825
168	0x3c941b10	0.01807931
169	0xbc4cb7cf	-0.012494995
170	0xbd00b6e1	-0.031424407
171	0x3c0f09d8	0.008730374
172	0xbc9ac41e	-0.018892344
173	0xbcb33b1a	-0.021878768
174	0xbbf49973	-0.0074645816
175	0xbc5bdc11	-0.013419167
176	0x3d009be0	0.031398654
177	0x3d4a8e89	0.04945234
178	0xbbda5c90	-0.0066638663
179	0xbd06fe24	-0.03295721
180	0x3d50d9fa	0.05098913
181	0x3cf96343	0.03044284
182	0x3ce5234c	0.027970932
183	0xbcdf8dc1	-0.027289273
184	0x3d51887e	0.05115556
185	0xbd387339	-0.04503176
186	0xbcff0e10	-0.031134635
187	0xbce44fae	-0.027870025
188	0x3d29b28e	0.04143005
189	0xbcf6a7f9	-0.030109392
190	0x3ca3c43e	0.019991037
191	0x3c12d36e	0.008961542
192	0x3cd3eb03	0.025868898
193	0x3d4e1800	0.050315857
194	0x3d531ae3	0.051539313
195	0x3d290b60	0.041270614
196	0x3ccb826a	0.02484246
197	0x3d014ae1	0.03156555
198	0x3c3ebde2	0.011641951
199	0x3d429df9	0.047513936
200	0x3d0fa927	0.035073426
201	0x3d49119f	0.04908907
202	0x3d2f2f44	0.042769685
203	0x3c8f1500	0.017466068
204	0x3d1ba22a	0.03799645
205	0x3d1aa8c7	0.037758615
206	0xbc909f0a	-0.01765396
207	0x3d386b7d	0.045024384
208	0x3d155cdf	0.036465522
209	0x3d111c43	0.035427343
210	0x3d21e506	0.039525054
211	0x3d9266e4	0.07148531
212	0x3cf9330e	0.030419853
213	0x3c9950b9	0.01871525
214	0x3bea4d0e	0.007150299
215	0x3ba32a84	0.0049794335
216	0x3d05fe57	0.03271326
217	0x3bffaa0c	0.0078022536
218	0x3d55701b	0.052108865
219	0x3d42ca04	0.04755594
220	0x3d3bb7c2	0.045829542
221	0x3d4378f4	0.04772277
222	0x3d710183	0.058839332
223	0x3c94403a	0.018097032
224	0x3d222c11	0.039592806
225	0x3ca5f85a	0.020260025
226	0x3d5b67ca	0.053565778
227	0x3d2f2b96	0.042766176
228	0x3d43e484	0.04782535
229	0x3d5021b3	0.050813388
230	0x3ce2ebf6	0.027700406
231	0x3d12c707	0.03583434
232	0x3caeadd0	0.021323115
233	0x3d7c9914	0.061669424
234	0x3d53e582	0.051732548
235	0x3d48cbf7	0.04902264
236	0xbb3954a0	-0.00282792
237	0x3d6b6e58	0.05747828
238	0x3d100e3b	0.03516982
239	0xbc64d07f	-0.013965725
240	0x3d43d49f	0.047810193
241	0x3d8d2d60	0.0689342
242	0x3d1ffc59	0.039059017
243	0x3d7590d4	0.059952572
244	0x3d84d218	0.06485385
245	0x3ceebd5f	0.029143034
246	0x3cc8c19c	0.024506383
247	0x3d2c946c	0.042133734
248	0x3d32d6c9	0.043661866
249	0x3dba1537	0.09086078
250	0x3d247445	0.040149946
251	0x3ce26721	0.027637066
252	0x3d35b85d	0.044365276
253	0x3d1bf363	0.03807391
254	0x3d666b02	0.056254394
255	0x3cec5671	0.028849812

sequential_1/lstm_1/lstm_cell_1/Cast_1/ReadVariableOp/resource:0 f4 [64, 256]
0	0xbc9e6522	-0.019335333
1	0xbd567ade	-0.05236327
2	0x3d9353c8	0.071937144
3	0xbdf7b47f	-0.12094974
4	0x3ca42213	0.02003578
5	0x3d99dc75	0.07512752
6	0xbd70330f	-0.058642443
7	0x3cea5044	0.028602727
8	0x3d365a95	0.04451998
9	0x3c590ed3	0.013248163
10	0xbc5a311d	-0.013317374
11	0x3daef796	0.08543317
12	0x3d8afbd0	0.06786311
13	0x3c7b3bd7	0.015334091
14	0x3d91afa2	0.071135774
15	0xbc29e0f7	-0.010368577
16	0xbdda19ad	-0.106494285
17	0xbcf8f840	-0.030391812
18	0x3c8063b9	0.015672551
19	0x3dc477ed	0.095931865
20	0x3d9c8639	0.076427884
21	0x3ab3ba1e	0.0013712083
22	0x3c0f0549	0.008729287
23	0xbce38446	-0.027773034
24	0x3d823471	0.06357659
25	0x3db21dfd	0.08697126
26	0x3d7aad91	0.061200682
27	0xbd5c5e4e	-0.053800873
28	0x3d826a2d	0.06367908
29	0x3d41d520	0.047322392
30	0xbd222b3a	-0.039592005
31	0x3c4d9b21	0.012549193
32	0xbd23ccc7	-0.039990213
33	0x3e0efbf5	0.13963301
34	0xbd6a4500	-0.05719471
35	0xbd786b86	-0.060649417
36	0xbd9307c5	-0.07179216
37	0x3b32f32d	0.0027305589
38	0xbd8af16a	-0.06784327
39	0x3c6e7cc8	0.014556117
40	0x3dc6235b	0.09674712
41	0xbdda9b1f	-0.10674118
42	0xbdac3942	-0.084093586
43	0x3e1665cf	0.14687274
44	0x3d46adef	0.04850572
45	0x3d220c4d	0.039562512
46	0x3d6a2105	0.057160396
47	0xbc32d810	-0.010915771
48	0xbd858fe9	-0.06521589
49	0x3dd105b7	0.10206168
50	0x3bccf856	0.00625519
51	0x3dd6f1c1	0.1049533
52	0xbd2f8a4e	-0.042856507
53	0xbd94e5ad	-0.0727037
54	0x3a96d063	0.0011506196
55	0x3d35e14c	0.044404313
56	0xbdf68946	-0.120379016
57	0x3da281af	0.079348914
58	0x3d5f09a5	0.054452557
59	0xbdcb6324	-0.09931019
60	0xbc9fa9be	-0.01949012
61	0x3d2b0211	0.041750018
62	0x3c02dccb	0.007987211
63	0xbd8b31c8	-0.067966044
64	0xbe51b8fe	-0.20480725
65	0x3ceebbe0	0.02914232
66	0xbda967b4	-0.08271733
67	0xbdab6e2a	-0.083706215
68	0xbd4316f7	-0.047629323
69	0x3d943cc4	0.072381526
70	0x3de32aa0	0.110921144
71	0x3d49c642	0.04926134
72	0x38254c9f	3.9410425e-05
73	0xbc2ba17e	-0.010475514
74	0x3d263896	0.04058131
75	0xbd1353dc	-0.035968646
76	0x3c8d9cbc	0.01728665
77	0xbbd56c1c	-0.006513132
78	0x3cedd97c	0.029034369
79	0xbd8d2f94	-0.068938404
80	0x3a4556cb	0.0007527887
81	0xbd7d141b	-0.061786752
82	0x3d0a5994	0.033776835
83	0xbd39304d	-0.04521208
84	0xbd763871	-0.06011242
85	0x3bd86668	0.0066040047
86	0x3d314565	0.04327907
87	0xbcba49a4	-0.022740193
88	0x3c2bccf6	0.010485878
89	0x3d715356	0.058917366
90	0xbcf58ea5	-0.029975245
91	0xbda7df63	-0.081969045
92	0xbdcb9b2c	-0.09941706
93	0xbd74c743	-0.059760343
94	0xbdc2e653	-0.09516587
95	0x3d8633ce	0.0655285
96	0xbd85faa7	-0.06541949
97	0x3da1d108	0.07901198
98	0x3d8af26e	0.06784521
99	0xbe43d007	-0.19122325
100	0xbd99be20	-0.075069666
101	0xbdc289ae	-0.094989166
102	0x3c5b92f3	0.013401735
103	0xbe251346	-0.16120633
104	0xbda1ff22	-0.07909991
105	0xbd04d781	-0.032432083
106	0x3dcc4541	0.09974147
107	0xbdb4be10	-0.08825314
108	0xbd5347bd	-0.051582087
109	0xbd8633d0	-0.06552851
110	0xbcfdd42e	-0.030984964
111	0xbd1137d6	-0.03545364
112	0xbd9a298e	-0.07527457
113	0xbdf92b82	-0.121665016
114	0xbe00b741	-0.12569906
115	0x3d993f1b	0.074827395
116	0xbe4090a0	-0.1880517
117	0xbda855bb	-0.08219477
118	0x3d52aac9	0.051432405
119	0xbdbb62b2	-0.09149684
120	0x3d5bd7cf	0.053672608
121	0x3da94ef8	0.08267015
122	0xbd2762a8	-0.04086557
123	0x3c52d0af	0.012867137
124	0xbe204c00	-0.15653992
125	0xbd7718a4	-0.060326234
126	0xbdb929ca	-0.09041174
127	0xbc76d7ad	-0.01506607
128	0x3e123e4d	0.14281578
129	0x3d3bc29e	0.0458399
130	0x3caaa09a	0.020828534
131	0x3da3f9d6	0.08006637
132	0xbd81ee1e	-0.063442454
133	0xb9fea12d	-0.0004856674
134	0xbdb1d92d	-0.08684001
135	0x3de01f57	0.109434776
136	0x3da5a024	0.08087185
137	0x3da9eb08	0.08296782
138	0x3d4f0840	0.050544977
139	0x3d85efae	0.06539856
140	0x3e00b1bb	0.12567799
141	0x3d6d2542	0.05789686
142	0xbc84435e	-0.016145404
143	0x3d870cb3	0.06594219
144	0xbd221225	-0.039568085
145	0x3ded2c87	0.115807585
146	0xbcc697ea	-0.02424236
147	0xbd4c7040	-0.049911737
148	0x3b8e96fa	0.004351494
149	0x3cac6d9b	0.021048358
150	0x3cdfee79	0.027335392
151	0x3dceb479	0.10093016
152	0x3c2c6319	0.010521674
153	0x3d3c45ae	0.04596489
154	0xbcb9e9e2	-0.022694532
155	0x3d801b83	0.062552474
156	0xbd804146	-0.0626245
157	0xbd417171	-0.047227327
158	0x3d3fbdd3	0.04681189
159	0x3cde1565	0.027109811
160	0x3d43abdb	0.047771316
161	0x3d595a5d	0.053064693
162	0xbb907cc9	-0.004409407
163	0xbda38120	-0.07983613
164	0xbe00e705	-0.12588127
165	0x3da5baad	0.08092246
166	0xbd2fedb7	-0.042951312
167	0xbde70346	-0.11279921
168	0x3d63340f	0.05546957
169	0xbdae9d41	-0.085260876
170	0xbd82ce42	-0.06386997
171	0xbca066ba	-0.019580234
172	0xbddb04ef	-0.106943004
173	0x3cc9a20b	0.0246134
174	0x3dc606e3	0.09669282
175	0xbc435072	-0.011921035
176	0x3be98ca2	0.0071273604
177	0x3d2de28c	0.04245238
178	0xbcd0a40d	-0.02546885
179	0xbd784846	-0.0606158
180	0xbb9b1dde	-0.004733785
181	0xbcf8d500	-0.030375004
182	0x3d360243	0.04443575
183	0x3d4f9321	0.050677422
184	0x3d3e1aa1	0.046412114
185	0xbe018c5f	-0.12651204
186	0xbcb34f8f	-0.021888522
187	0x3de64fe5	0.112457074
188	0x3d93be48	0.07214028
189	0x3d87c0fe	0.06628607
190	0xbb8cdfa1	-0.0042991196
191	0xbdffdb7e	-0.12493037
192	0xbe14e442	-0.14540198
193	0xbbe05f70	-0.0068473145
194	0xbd107f72	-0.03527779
195	0x3abeee90	0.0014566947
196	0xbc0df1f9	-0.008663648
197	0x3c5690c2	0.013096036
198	0x3cd72ecc	0.026267432
199	0x3c01e2f7	0.007927648
200	0xbdcf2710	-0.101148725
201	0x3e23071a	0.15920678
202	0xbd94cd50	-0.07265723
203	0x3d8895e3	0.066692136
204	0xbd651b24	-0.055934086
205	0xba51e8e6	-0.0008007422
206	0xbc1d9150	-0.009617165
207	0xbd02b81c	-0.03191386
208	0xbe27381f	-0.16330002
209	0xbc32c11a	-0.010910297
210	0xbdc5f9e0	-0.096668005
211	0xbdc5cb15	-0.096578754
212	0xbc4486a2	-0.01199499
213	0xbd1a3f37	-0.037657943
214	0xbbff912e	-0.007799289
215	0x3c7b8d5d	0.015353528
216	0x3c3ca37e	0.011513589
217	0xbcd1c6dd	-0.02560752
218	0x3d426241	0.047456983
219	0xbd931dce	-0.07183419
220	0xbe069049	-0.13140978
221	0x3d981d8f	0.07427513
222	0xbccc1970	-0.024914473
223	0x3c3cdfe4	0.011527989
224	0xbe0baa0b	-0.13639085
225	0x3d57f22d	0.05272119
226	0xbdd7ff68	-0.10546762
227	0x3c5662bf	0.013085066
228	0xbcd11bb8	-0.025525913
229	0x3e046eeb	0.12932937
230	0xbddb1457	-0.10697239
231	0xbc608108	-0.013702638
232	0x3daca315	0.08429543
233	0xbd92fc34	-0.0717701
234	0x3d2a67f7	0.041603055
235	0x3def46de	0.11683439
236	0x3d84accf	0.06478273
237	0x3e19a0f3	0.15002804
238	0xbc934ee4	-0.017981954
239	0x3d8302ca	0.06397016
240	0xbc9dd897	-0.019268317
241	0x3c4f51ba	0.0126537625
242	0xbd7d4a9b	-0.061838727
243	0x3db7a4ad	0.08966956
244	0xbcbf981b	-0.02338796
245	0xbb0aace0	-0.002116017
246	0x3de7eaa6	0.113240525
247	0xbcd9c81a	-0.026584674
248	0x3c902a54	0.017598309
249	0x3e22812f	0.15869592
250	0xbc9ccf40	-0.019141793
251	0xbd63aea9	-0.05558649
252	0xbcba4474	-0.02273772
253	0xbd58e354	-0.052951172
254	0xbd4a9dc0	-0.04946685
255	0xbdb3ec2c	-0.087852806

sequential_1/lstm_1/lstm_cell_1/Cast/ReadVariableOp/resource:0 f4 [6, 256]
0	0x3dfba755	0.122877754
1	0x3cbfb08f	0.02339962
2	0xbd14f05d	-0.03636204
3	0x3e10bb35	0.14133914
4	0xbddddd23	-0.10833194
5	0x3cc053fb	0.023477545
6	0x3e1d7ffa	0.1538085
7	0xbe0159e2	-0.12631944
8	0xbb75ca48	-0.0037504602
9	0x3d0cf21c	0.03441058
10	0xbe1fe8c3	-0.15616135
11	0xbcb4664e	-0.022021439
12	0x3debc24a	0.11511667
13	0xbd14db05	-0.036341686
14	0x3c6f8f2c	0.014621537
15	0x3da32be4	0.07967356
16	0xbe2f8d16	-0.17143664
17	0xbdf0caa9	-0.11757404
18	0xbcbe7b14	-0.023252048
19	0xbe0f4726	-0.13991985
20	0xbe216f79	-0.1576518
21	0x3d9830f5	0.07431213
22	0x3e0d4939	0.13797463
23	0xbd67aaee	-0.056559496
24	0x3dce16f5	0.100629725
25	0xbdf31b54	-0.11870447
26	0xbd25cc55	-0.04047807
27	0x3d066a12	0.032816
28	0x3c0a047f	0.0084239235
29	0xbdbd2b41	-0.09236766
30	0xbe0dc9c2	-0.13846496
31	0x3dd87fd1	0.10571254
32	0xbe3f9975	-0.18710883
33	0xbc63de6d	-0.013908011
34	0xbdf8ab72	-0.121420756
35	0xbe108fe4	-0.1411739
36	0x3d4d8c9d	0.050182927
37	0xbdcab02d	-0.09896884
38	0x3cfce851	0.030872496
39	0x3d636b44	0.05552222
40	0xbdf8c3bb	-0.121467076
41	0xbc9aa38a	-0.01887681
42	0xbda763ba	-0.08173318
43	0xbd98918b	-0.07449635
44	0x3e1bfb4e	0.15232584
45	0xbd9cbe47	-0.0765348
46	0x3c56caba	0.013109857
47	0xbd8b32d2	-0.067968026
48	0xbe0ca955	-0.1373647
49	0xbbad8928	-0.0052958913
50	0x3d284439	0.041080687
51	0xbce0fdb9	-0.027464734
52	0xbe301e63	-0.17199092
53	0xbe06cd96	-0.13164362
54	0x3db2ab29	0.087240525
55	0x3d9eaf4f	0.07748281
56	0xbbc2dce3	-0.005946742
57	0xbdec8677	-0.11549085
58	0xbe15d3e7	-0.14631616
59	0xbe242518	-0.16029775
60	0x3db2c7cd	0.08729515
61	0x3d98954b	0.074503504
62	0xbda220f6	-0.07916443
63	0x3d704bd0	0.05866605
64	0xbd260b84	-0.040538326
65	0x3d4f990d	0.05068307
66	0xbd5098d1	-0.050926987
67	0xbcf59677	-0.029978974
68	0x3e0a8ddd	0.13530679
69	0x3d9ca73b	0.07649084
70	0x3d8cbea4	0.06872299
71	0x3dc3bf59	0.09557981
72	0x3decd63c	0.115642995
73	0xbdce7a1a	-0.10081883
74	0x3ca10d47	0.019659651
75	0xbe046de7	-0.1293255
76	0x3dd61604	0.10453418
77	0x3d1cc186	0.038270496
78	0x3d07de56	0.03317102
79	0xbdd07676	-0.10178845
80	0xbd9ae354	-0.07562891
81	0x3e17c9be	0.14823052
82	0xbe25e28f	-0.16199706
83	0xbd4be3d0	-0.049777806
84	0xbd837700	-0.06419182
85	0xbdf6332a	-0.120214775
86	0x3dfa4ba1	0.12221456
87	0x3deeee8e	0.116665944
88	0x3d3476fd	0.04405879
89	0x3c476d1f	0.012172013
90	0xbc58bdac	-0.013228815
91	0x3d9747b7	0.073867254
92	0xbb4d595b	-0.0031333778
93	0xbdcb4c47	-0.09926658
94	0x3d914bcf	0.070945375
95	0xbd6c4772	-0.057685323
96	0x3d1ac0cc	0.03778152
97	0x3dac4de7	0.08413296
98	0xbd153f69	-0.036437426
99	0xbe245b9c	-0.16050571
100	0x3df30ee9	0.11868078
101	0x3dd4be6a	0.10387881
102	0xbb86bd4c	-0.0041119214
103	0xbdaafff5	-0.08349601
104	0xbd9b0bc0	-0.075706005
105	0x3d05653d	0.03256725
106	0xbe288d8a	-0.16460243
107	0xbd98ff0f	-0.074705236
108	0x3e07903a	0.13238612
109	0xbd6634ba	-0.056202628
110	0xbda68a11	-0.08131803
111	0x3d640009	0.055664096
112	0xbd06d68c	-0.03291945
113	0x3d8882c1	0.06665564
114	0xbd0ebe4c	-0.03484945
115	0xbda6269e	-0.081128344
116	0x3dd3092a	0.10304482
117	0xbe0a8c75	-0.13530143
118	0xbdd12c9c	-0.10213587
119	0xbdbce912	-0.09224142
120	0x3c858559	0.016298937
121	0xbe2375e3	-0.15962939
122	0xbdf9e05a	-0.12200995
123	0x3dda039a	0.10645218
124	0x3dfee313	0.12445655
125	0xbdb0f2af	-0.08640038
126	0x3d914d54	0.07094827
127	0xbde2725d	-0.11056969
128	0x3cbe1cc2	0.023207072
129	0xbdf7c653	-0.12098374
130	0x3d801203	0.062534355
131	0xbd5eba89	-0.054377113
132	0x3d12fedf	0.035887595
133	0x3bdd3358	0.0067505054
134	0xbd5f23fa	-0.05447767
135	0xbe29e347	-0.16590606
136	0xbc3f13cd	-0.011662436
137	0x3d1fc4f5	0.039006192
138	0x3e1ce5ef	0.15322088
139	0xbdaf41d6	-0.08557479
140	0xbe15b112	-0.14618328
141	0xbde396e7	-0.11112767
142	0x3c878ea1	0.016547503
143	0x3ddbf26d	0.107395984
144	0x3ddf4d9e	0.10903476
145	0x3d3778a1	0.044792775
146	0x3d0551ee	0.032548837
147	0x3e016d96	0.1263946
148	0xbd8fd42b	-0.0702289
149	0xbdbe6a3a	-0.09297605
150	0x3d1acc99	0.037792776
151	0x3e05a405	0.1305085
152	0xbdd3ff48	-0.103514254
153	0xbd7184c8	-0.05896452
154	0xbdcec387	-0.10095888
155	0xbe0889a3	-0.13333754
156	0x3de48fcd	0.1116024
157	0xbd7d1942	-0.061791666
158	0x3d6dfd28	0.058102757
159	0x3dcf952b	0.101358734
160	0xbc1a96d9	-0.009435379
161	0x3c589f07	0.013221509
162	0xbe0c8a3e	-0.1372461
163	0x3e0eb142	0.13934806
164	0x3e27b2d1	0.16376807
165	0xbe0337c2	-0.12814239
166	0x3e009186	0.12555513
167	0xbd13c0a1	-0.036072377
168	0x3dad8b9a	0.084738925
169	0xbe0a7b2e	-0.13523552
170	0xbdcc6688	-0.09980494
171	0x3d54a645	0.05191638
172	0xbd3cfafa	-0.046137787
173	0x3c015eaf	0.0078961095
174	0xbcfb63ee	-0.030687299
175	0x3de4b9c6	0.11168246
176	0x3c964c13	0.018346822
177	0xbda1cf65	-0.079008855
178	0x3dbe361d	0.09287665
179	0xbe27814b	-0.16357915
180	0xbb8b8f93	-0.0042590587
181	0x3e266b9e	0.1625199
182	0xbe0d7a7b	-0.13816254
183	0xbe186d20	-0.14885378
184	0xbd5d73a2	-0.054065354
185	0xbb7aca67	-0.0038267614
186	0xbcad7c7f	-0.021177528
187	0xbe0952fc	-0.13410562
188	0xbd24d37d	-0.040240753
189	0xbda3b331	-0.079931624
190	0x3d570b4a	0.052501
191	0xbe034ca2	-0.12822202
192	0xbb67c981	-0.0035367908
193	0x3d586c32	0.052837558
194	0x3e07b288	0.13251698
195	0x3dde68a3	0.108598016
196	0xbcff5389	-0.031167762
197	0xbd044292	-0.03229005
198	0x3dc44305	0.095830955
199	0x3c783350	0.015148953
200	0xbdcd8237	-0.10034602
201	0x3adf9c11	0.0017060061
202	0xbd00e9d1	-0.031472985
203	0x3d11708b	0.03550772
204	0xbde73fbf	-0.112914555
205	0xbded87ed	-0.115981914
206	0xbe0860df	-0.13318203
207	0xbd22a479	-0.039707635
208	0xbd30faca	-0.04320792
209	0x3d92e3bf	0.07172345
210	0xbce25112	-0.027626548
211	0xbe19b9cf	-0.15012287
212	0xbe1ea570	-0.15492797
213	0x3d2ac687	0.041693237
214	0xbd990d17	-0.074732
215	0xbdbe11ab	-0.09280714
216	0x3c7ff428	0.015622176
217	0xbdc9a1e2	-0.0984533
218	0x3babc695	0.0052421787
219	0xbcd0ba85	-0.025479564
220	0xbd26abc0	-0.040691137
221	0xbdb75aaa	-0.0895284
222	0x3c5360fa	0.012901539
223	0xbe366964	-0.17813641
224	0xbe1c6522	-0.15272954
225	0xbd5abf5a	-0.053405143
226	0xbb62f3ae	-0.0034630108
227	0x3c873089	0.016502636
228	0xbd512b40	-0.051066637
229	0xbe0c6bb4	-0.1371296
230	0xbdc2f316	-0.09519021
231	0x3cbbbd42	0.022917394
232	0x3d7f1d0a	0.062283553
233	0xbd937dd4	-0.07201734
234	0xbb0aceef	-0.002118047
235	0xbe09ad81	-0.13445093
236	0xbd83bfda	-0.06433077
237	0xbc618210	-0.0137639195
238	0xbdce5352	-0.10074486
239	0x3d77757a	0.06041477
240	0x3d0d4018	0.034484953
241	0xbdcc3861	-0.09971691
242	0x3bb2672e	0.005444429
243	0x3dad108d	0.084504224
244	0x3d9e8a74	0.077412516
245	0x3d73007a	0.059326626
246	0xbd7d6cf6	-0.06187149
247	0x3d47faf5	0.048823316
248	0x3de89446	0.11356406
249	0xbe30e910	-0.17276406
250	0xbc6105c6	-0.013734287
251	0xbb2aa811	-0.0026040117
252	0xbc8cd4de	-0.017191347
253	0xbe250394	-0.16114646
254	0x3d623879	0.055229638
255	0x3df1da18	0.11809176

sequential_1/dense_1/Cast/ReadVariableOp:0 f4 [32, 3]
0	0x3db7d6f3	0.08976545
1	0xbe7d2747	-0.24722014
2	0x3ea703a4	0.32619965
3	0x3e93cb48	0.2886603
4	0x3ed4e558	0.41581225
5	0xbe21d451	-0.15803649
6	0x3d781ecc	0.060576245
7	0x3e22d78f	0.15902542
8	0xbefe06d6	-0.4961459
9	0xbec9e3db	-0.39431652
10	0xbe1c4f0c	-0.15264529
11	0x3ece53ea	0.40298396
12	0xbe928c47	-0.28622648
13	0x3e488cfc	0.19585031
14	0xbe0e0992	-0.13870838
15	0xbe276d60	-0.16350317
16	0x3ea9d543	0.33170518
17	0x3d04b703	0.032401096
18	0x3ee71c50	0.45138788
19	0x3d40f33a	0.04710696
20	0x3e635551	0.22200514
21	0xbe31cf55	-0.17364247
22	0xbe21175e	-0.1573157
23	0xbedceee6	-0.43151015
24	0x3e02a3fb	0.12757866
25	0xbe2d6417	-0.16932712
26	0xbd7e95c5	-0.06215455
27	0x3ee7ba8e	0.45259517
28	0xbef23807	-0.4730837
29	0x3e0d39b0	0.13791537
30	0xbea51054	-0.3223902
31	0x3e799432	0.24372938
32	0xbed67e58	-0.41893268
33	0xbeb5c239	-0.35499743
34	0xbd163cc2	-0.036679037
35	0xbe72eee3	-0.2372394
36	0x3eeb58af	0.45966098
37	0xbeec61d1	-0.46168378
38	0x3e836a3e	0.25666994
39	0xbe543c59	-0.20726146
40	0xbe508bb1	-0.20365788
41	0x3e202924	0.15640694
42	0x3e438eef	0.19097494
43	0xbc9cd535	-0.019144634
44	0x3ec331ac	0.38123834
45	0xbf07d7d6	-0.53063715
46	0xbe4637e0	-0.19357252
47	0xbed13dee	-0.4086756
48	0xbdd357d9	-0.1031949
49	0x3f00a86f	0.5025701
50	0x3db07074	0.08615199
51	0xbebdcfb7	-0.37072536
52	0xbeeb46fd	-0.45952597
53	0x3e2a760c	0.16646594
54	0x3ed7658b	0.4206966
55	0xbe61c267	-0.22046815
56	0xbeb07941	-0.3446751
57	0x3ed374e7	0.41300127
58	0x3e53f2ed	0.20698138
59	0xbe85c9e1	-0.26130584
60	0x3ed9d251	0.4254327
61	0xbd97b78c	-0.07408056
62	0xbe8a8877	-0.2705724
63	0xbea0e347	-0.314234
64	0xbeb55791	-0.3541837
65	0x3d675e3b	0.05648635
66	0x3c868ee4	0.016425557
67	0x3e8093fd	0.25112906
68	0x3d66c949	0.056344304
69	0xbe5f7714	-0.21822768
70	0xbee5dbe0	-0.44894314
71	0xbeb63312	-0.3558584
72	0x3ea57f2a	0.3232358
73	0xbd786dde	-0.060651653
74	0xbeb51634	-0.35368502
75	0xbe41a0cc	-0.18908995
76	0x3da63498	0.081155
77	0x3eb9ebda	0.36312753
78	0x3ec7ef64	0.39049828
79	0xbe9ee97d	-0.31037512
80	0xbe51676c	-0.20449609
81	0xbe8e1b71	-0.2775531
82	0x3e9541b1	0.2915168
83	0x3ebe336a	0.371486
84	0x3e6eea71	0.2333162
85	0x3e995a89	0.29951885
86	0xbe5156e0	-0.20443296
87	0x3e467884	0.1938191
88	0xbeb2eda2	-0.34946924
89	0xbee1511d	-0.44007197
90	0x3eddae09	0.4329684
91	0x3e100872	0.14065722
92	0xbe4d71c4	-0.2006293
93	0x3e231923	0.15927558
94	0xbe9d6f1d	-0.30748835
95	0x3ebfc224	0.37452805

sequential_1/dense_1/BiasAdd/ReadVariableOp:0 f4 [3]
0	0xbcb02a3c	-0.021504514
1	0x3d36a446	0.044590257
2	0xbd1f3bce	-0.038875394
